model.pt (torch, 66705 bytes, 19 tensors)

conv1.weight f4 [16, 1, 3, 3]
000000 34 bb 95 3e 96 20 a8 bd 5c 71 16 3e 98 47 84 be
       0.29244387 -0.0820934 0.1469168 -0.25835872
000010 68 f4 a0 3e b8 16 8e 3d ef 93 0d 3d 54 2e c3 3d
       0.31436467 0.06937927 0.03456491 0.09530321
000020 c4 1a c9 bc ed 91 34 3d 9b fb 12 bc d0 c4 82 3e
       -0.024548896 0.04408448 -0.00897112 0.2554078
000030 68 26 72 be 93 e7 d0 3d 66 ca 02 3d 07 b6 36 3e
       -0.23647463 0.10200419 0.031931303 0.17842875
000040 b2 a9 2e be 13 ee 29 bd 5d d2 27 be be 3a 9b bd
       -0.17056921 -0.04148681 -0.16388841 -0.075795636
000050 a5 8d 33 be 31 3c 04 be c8 dc 1d be 9c 78 54 be
       -0.17534502 -0.12913586 -0.15416253 -0.20749134
000060 71 9f 05 3e 49 d2 77 bd 7b 75 49 3e ef f9 20 3e
       0.13049103 -0.060503278 0.19673721 0.15720342
000070 3d d9 12 bd 1e b0 78 be 3a 52 86 be 49 01 6d 3e
       -0.035851706 -0.24285933 -0.2623461 0.23145021
000080 dc db 22 3e 8b 82 92 3e 44 c8 02 3e f9 2a 61 be
       0.15904182 0.2861522 0.12771708 -0.21989049
000090 6a c3 8c bb bc 34 23 3d 87 05 85 3d fc 15 00 3d
       -0.004295756 0.039845213 0.06495195 0.031270966
0000a0 03 7a 30 bc b2 cc 9e be bf 80 25 3e 90 db 23 3e
       -0.010771277 -0.31015545 0.16162394 0.16001725
0000b0 38 ec 0d 3d 3c 40 17 be 2a 33 b5 3d 1f 4e 7c 3d
       0.034649104 -0.14770597 0.088476494 0.06159794
0000c0 ae 84 39 be d3 56 15 3e ad 6f 17 3c d0 e2 80 3e
       -0.1811702 0.14583902 0.009242934 0.25173044
0000d0 87 39 14 bd 1f d5 95 be 69 fb 56 be de 82 26 bd
       -0.036187675 -0.2926416 -0.20994343 -0.04065215
0000e0 13 34 b0 bd bf de 9f 3e 18 a9 36 3e a3 5b 84 be
       -0.08603682 0.3122463 0.17837942 -0.25851163
0000f0 25 7a 7e be 86 73 ab 3e 10 b5 b4 3d 65 13 43 3e
       -0.24851282 0.33486575 0.088235974 0.19050367
000100 e9 5d 46 be a2 b9 a8 bc 5b 01 85 be 0c dc 60 3e
       -0.19371761 -0.02059633 -0.25977597 0.21958941
000110 c1 41 69 3e c9 ed cf bd 32 28 b6 be 1b 83 88 bd
       0.2277899 -0.10152776 -0.35577542 -0.066656314
000120 2a 26 83 3e 17 14 a1 be 7a e8 a1 bd 25 c3 85 be
       0.25615054 -0.3146064 -0.079056695 -0.26125446
000130 8d 2e 78 bd 56 bb 14 be b9 65 ae bb 96 f1 97 3e
       -0.06059127 -0.14524588 -0.005322185 0.29676503
000140 2a 1c 24 3e a0 28 9d be 38 45 bb bc 1c d2 7c 3e
       0.16026369 -0.30695057 -0.022860155 0.24689525
000150 25 d0 d5 3d 64 eb 85 be 31 82 51 3c fc ab a8 be
       0.10440091 -0.2615615 0.012787388 -0.32943714
000160 a4 c9 68 bd 1d 57 a8 bd b7 fb d2 bc f0 48 6a be
       -0.056832924 -0.082197405 -0.025754793 -0.22879386
000170 e6 2f 87 bd 2c 7a 3d be 32 53 d8 bc 50 57 f5 bd
       -0.06600933 -0.18503636 -0.026406858 -0.11979544
000180 fa 45 a9 3d 91 1f a6 3d 2a 01 85 be 01 4b 9c bd
       0.082653 0.081114896 -0.2597745 -0.07631493
000190 76 4b 0b 3d c2 af dd bc 98 46 3a 3e 5e ef 48 3e
       0.034007512 -0.027061347 0.18190992 0.19622561
0001a0 8f db a2 3e d1 4d c5 bc d8 c2 83 be bb 93 98 be
       0.31808135 -0.024084957 -0.2573459 -0.2980021
0001b0 d6 05 15 be 5d 20 81 3e 5e 0c 36 be c9 8c 71 3e
       -0.14553007 0.25220004 -0.17778155 0.23588862
0001c0 6f a2 4b be 21 97 71 3e 89 d4 03 be 50 d7 90 bc
       -0.19886182 0.23592807 -0.12874044 -0.017680794
0001d0 a3 89 69 be 66 0f 93 be fe 66 53 3d a3 fe 93 be
       -0.2280641 -0.28722686 0.051611893 -0.2890521
0001e0 d7 84 ae bd 8a 00 a1 be 83 f4 40 bc 34 0b 7e 3d
       -0.08521431 -0.31445724 -0.011777046 0.062022403
0001f0 8c 55 6e be b0 ac 45 bd 88 9d 93 be 9d d7 4d be
       -0.23274821 -0.04826039 -0.28831124 -0.20101781
000200 8a cc 2b 3e 46 7c f1 bd 42 89 33 3e 95 08 10 bd
       0.16777244 -0.117912814 0.17532828 -0.035164434
000210 ee 61 18 be 3e a7 e3 3d f6 ca b3 3d 56 1b a5 3e
       -0.14881107 0.11115883 0.08778946 0.32247418
000220 5b 3e 8e 3e 77 a8 18 be 85 d4 84 be b8 bc de bd
       0.27781948 -0.14908014 -0.2594339 -0.10875839
000230 38 11 a5 be 45 69 5f bd 4a f9 6a 3d fb 8c 81 3e
       -0.322397 -0.054543752 0.057366647 0.25302872

conv1.bias f4 [16]
000000 91 c8 5e be 19 f6 d5 bd 84 91 95 be ac b1 54 be
       -0.21756198 -0.1044733 -0.29212582 -0.20770901
000010 59 6b 10 3d 5d 84 20 bd 35 fc d6 bc 20 e4 0f be
       0.035258625 -0.03918873 -0.026243309 -0.14051867
000020 4b 33 92 3e 79 49 21 3e e1 7c 55 3d 6f 81 4c 3e
       0.28554758 0.15750684 0.052121047 0.1997125
000030 39 0a 15 3e 86 07 b8 3d d6 1a 1e be 90 0a e4 3c
       0.14554681 0.0898581 -0.15439925 0.027837068

conv2.weight f4 [32, 16, 3, 3]
000000 93 9c 99 bd c3 4c 6a 3d 94 14 3d bd 4d 1d 83 3d
       -0.07500567 0.057202112 -0.046162203 0.06402073
000010 ac e8 57 3c b6 30 70 3c 50 29 48 3c dd f6 91 bd
       0.013178032 0.014660051 0.012216881 -0.071271636
000020 22 9f 62 3d 07 b8 5b 3a 6d 29 d3 bc 0a 67 33 bd
       0.055327542 0.0008381609 -0.02577659 -0.043799438
000030 b4 10 a0 bd e1 3d 98 bc 7f 6b 68 bd 98 21 a7 bd
       -0.07815686 -0.018584194 -0.05674314 -0.081607044
000040 80 bc 0e 3d 89 d4 7b bc 43 29 88 bd 64 17 34 bd
       0.034847736 -0.015370497 -0.06648495 -0.04396762
000050 c0 fc e7 bc 43 70 0e 3d ca 02 6c bd da 4b 83 3d
       -0.028318763 0.03477503 -0.057619847 0.06410952
000060 76 dc f5 bc db 36 b1 3d 37 b0 f1 3b 10 c0 84 bc
       -0.03001235 0.08653041 0.007375743 -0.016204864
000070 5a 83 33 bd 7a 5b 07 3d 9a 47 46 bb 0a ab 35 bd
       -0.04382644 0.033046223 -0.003025508 -0.04435257
000080 57 24 0e bd 16 64 42 3c cf ef 84 bc e8 ba 8c 3d
       -0.034702625 0.011864683 -0.01622763 0.06871587
000090 9c 55 8f bd 4d ac 1d bd 18 03 0f bd 6b 82 a0 bd
       -0.069987506 -0.038494397 -0.03491506 -0.07837375
0000a0 8c 76 6b bd 0d 9b 1e bd e8 74 1c bd b7 0f fe 3b
       -0.057486102 -0.038722087 -0.038197428 0.007753338
0000b0 d3 cf b0 bc ca c4 cd bc f1 72 8d bd 90 90 3a 3d
       -0.021583473 -0.02511825 -0.06906689 0.04554802
0000c0 aa 95 95 bd a9 6d 97 bd c1 0c 08 3d 8b 8c 89 bd
       -0.07303937 -0.07393963 0.033215288 -0.067162596
0000d0 5c fb 1f bd 32 c7 81 3d 0a 08 c1 bd d2 fe 86 bd
       -0.039058074 0.063368216 -0.094253615 -0.06591572
0000e0 0d 77 d1 3c 68 a4 b2 bc 4e 0a af b8 9a 58 d1 bd
       0.025569463 -0.02180691 -8.34657e-05 -0.102219775
0000f0 08 d2 6f bd a4 25 06 bd 2b 25 0f 3d 9f 1f a6 3d
       -0.05854991 -0.03275074 0.034947556 0.081115
000100 ee 12 fd 3c e6 0f 8e bd 11 59 70 3d 9f e6 b3 3d
       0.030892815 -0.06936626 0.05867869 0.08784222
000110 25 a8 50 3c dd 7a 47 bc 2d 33 9a 3d 22 8f 92 3c
       0.012735401 -0.012175289 0.07529292 0.017890517
000120 52 1c 95 3d 82 f0 0e 3d 9b 02 66 3d 22 9a 1b 3d
       0.07280792 0.034897335 0.05615483 0.03798879
000130 de 1a 56 bd d2 ff 1d bc 61 b3 81 bd 99 6d 0c bd
       -0.052271716 -0.009643512 -0.06333042 -0.034284208
000140 eb da 0b 3d 45 29 90 bd 90 53 80 bd c2 91 56 bd
       0.034144323 -0.070391215 -0.06265938 -0.0523851
000150 bd a1 1e bd fc 47 81 bd 08 5d 1a 3d f2 2e 8f bc
       -0.038728464 -0.06312558 0.037686378 -0.01747844
000160 8c 16 96 3d d7 82 36 bd a2 63 4a bd 4d 66 55 3d
       0.07328519 -0.044558372 -0.049411424 0.052099515
000170 d9 06 d8 3c dd 1b ad bd 67 40 71 3c 71 d0 95 bd
       0.026370453 -0.0845258 0.014724827 -0.07315148
000180 ae b8 7f bc 69 5f 27 3d 0e a3 f8 bc fb 53 87 bb
       -0.015607996 0.040862475 -0.030351188 -0.0041298843
000190 20 e9 78 3d a8 e3 42 3c db d5 d1 3c d5 6d 01 bd
       0.0607692 0.011895098 0.02561467 -0.031598885
0001a0 7c a0 1e bd 93 f6 58 3c 7c 07 8c 3c 7e f7 43 bc
       -0.03872727 0.013242382 0.017093413 -0.011960862
0001b0 c4 6b b4 3b 7b c5 5d 3d 19 76 6d bd 01 60 27 bd
       0.0055060107 0.05414341 -0.057973955 -0.04086304
0001c0 63 99 4e bd 6a cd 52 3d 7b 4f 13 bd 13 ec 01 3d
       -0.05043925 0.05146543 -0.03596447 0.03171928
0001d0 0d 07 b0 bd ff 70 84 3d 32 82 2b bc e8 3e a1 3c
       -0.08595095 0.06466865 -0.010468053 0.019683316
0001e0 f7 48 80 3d 9a a4 31 bd 79 83 a7 3d 8f 1f 26 3d
       0.06263917 -0.043369867 0.08179373 0.04055744
0001f0 29 3a 80 3d 84 f6 cf bc b9 92 7b 3d 8b 13 27 3c
       0.06261093 -0.025386102 0.061419223 0.0101975305
000200 47 74 2e bd c9 eb 5e bc 9e d8 f4 bc 1c 2f 21 3c
       -0.04259136 -0.01360602 -0.029888447 0.009837892
000210 62 39 7a bd c3 b6 91 3d 74 eb 4b 3c 95 f3 04 3d
       -0.06108988 0.07114937 0.012446273 0.03245886
000220 c6 41 57 bc 59 d6 94 bd 84 54 a1 bd f7 e7 67 3d
       -0.01313824 -0.07267446 -0.07877448 0.056617703
000230 4e cf 86 3c 63 42 60 3d e6 55 2d bd 67 2c 84 bd
       0.016456272 0.05475081 -0.042318247 -0.064537816
000240 2f 44 b9 bd 44 84 23 bd 79 1d 70 3d 19 dc 84 3d
       -0.09046208 -0.03992106 0.058621857 0.06487293
000250 0a 50 80 bd c4 cf 60 bd 5c 1c 75 3d 7e 10 9b bd
       -0.06265266 -0.05488564 0.0598415 -0.07571505
000260 d2 10 b6 bd 2f 85 4f 3c bc b3 16 bd 8b e4 93 bd
       -0.08889927 0.012666031 -0.0367925 -0.072213255
000270 c0 b1 3d bc 88 76 e9 bc 4c 37 92 bd 06 35 63 bb
       -0.011578023 -0.028498903 -0.07139453 -0.0034669056
000280 f9 ca 56 3d 6a 5d a8 bd 70 64 0b bd 60 5b 90 3d
       0.052439664 -0.08220942 -0.03403133 0.070486784
000290 fa 23 80 3d 17 37 f8 3c 0b 63 9e bd f7 c8 7b 3d
       0.06256862 0.030299706 -0.07733735 0.061470952
0002a0 fc ee 83 3b f3 fb 6b 3d 8a 9b 85 3d 5a e2 dd 3b
       0.004026292 0.057613324 0.06523807 0.006771368
0002b0 3b 1f 9d 3c 4c aa 92 bd 87 60 60 bd 42 24 cc 3c
       0.01917993 -0.07161388 -0.054779556 0.024919633
0002c0 45 c4 ef bc bd ef b3 bd a8 49 18 3c 77 f8 c3 3c
       -0.029268393 -0.08785961 0.009294905 0.023922188
0002d0 9b a5 b3 bd d0 6c 42 bb 6f 6c e0 3c 1c 12 3b bd
       -0.08771821 -0.0029666908 0.027395455 -0.045671567
0002e0 1c 99 3a 3c ab ae dc 3c d4 e2 a9 3c 76 5d 41 bd
       0.011389043 0.026938757 0.020738043 -0.047208272
0002f0 ac 12 8b bd d5 ac cb bc ff 1e 0a bd 60 fe 44 3d
       -0.06790671 -0.024862686 -0.033720966 0.048094153
000300 be a3 be bb 03 d5 b9 bc bd 40 53 bd 56 9d f6 3c
       -0.0058178594 -0.02268458 -0.05157541 0.03010432
000310 34 f0 74 bd 74 22 92 ba db eb 48 3d d1 51 5a bd
       -0.059799388 -0.0011149184 0.049053054 -0.053300682
000320 90 5d 7d bd a4 2a ca bc 95 e0 df 3c bc 9f 07 3d
       -0.061856806 -0.024678536 0.027328769 0.03311132
000330 2f d5 5f bd cd 3c 4f bd 5d 43 e4 3c bf 70 7a bd
       -0.054646667 -0.050595094 0.027864153 -0.06114268
000340 d8 7a 2e bd bd c2 9e 3d 56 af d8 bc 79 09 2b 3d
       -0.04259762 0.07751987 -0.026450794 0.04175708
000350 a3 f5 c4 3b 15 1e 20 bc fb 5b 7a 3d 51 58 91 3c
       0.0060107275 -0.009772797 0.061122876 0.017742308
000360 76 0f a8 bd 83 26 15 bd b3 d9 21 bd 71 30 18 3d
       -0.08206074 -0.03641368 -0.039514255 0.037155572
000370 37 05 88 bd 02 0c 54 3d 6d 07 fd 3c fb 8f cf ba
       -0.0664162 0.051769264 0.03088733 -0.0015835756
000380 89 b2 91 3d e2 41 47 bd 27 61 2c 3d 8c a7 99 3d
       0.07114131 -0.048646815 0.04208484 0.0750266
000390 da b3 51 3d 1a a0 b5 3c b9 dc 07 3d 7d 87 59 bc
       0.05119691 0.022171069 0.033169482 -0.013276932
0003a0 56 d3 b0 bd 5a 86 16 bd 86 91 39 3d 69 ff 50 3c
       -0.08634059 -0.03674922 0.045304798 0.012756207
0003b0 58 95 9e bd 9d c5 84 3d 21 42 b3 bd a5 1b 7f bd
       -0.07743329 0.06483004 -0.087528475 -0.062282223
0003c0 ab b3 3c bd 57 3f 0d bd e8 36 d5 3c b4 e9 41 3c
       -0.046069782 -0.034484234 0.026027158 0.011835504
0003d0 3b 2e 48 3d 91 b1 31 bd 97 d0 26 3d e7 a2 95 bd
       0.048872214 -0.04338223 0.04072627 -0.07306462
0003e0 7a 8c 90 3d 29 b8 3b 3d e4 f7 32 bc 37 12 8d bd
       0.07058044 0.045829926 -0.01092336 -0.0688824
0003f0 84 d7 89 bd 12 b6 40 bd 0a b6 b9 bc 6a 4c cd bc
       -0.067305595 -0.047048636 -0.02266981 -0.025060851

conv2.bias f4 [32]
000000 ff 60 b2 bc 08 33 d0 bb df e7 59 3d 84 27 6e bc
       -0.021774767 -0.0063537396 0.053199645 -0.014535788
000010 5e bf c9 bc 69 f8 80 bd ee 88 77 bd a1 03 86 3d
       -0.024627384 -0.062973805 -0.06043332 0.06543661
000020 99 83 87 bc a0 72 a2 bd 77 c9 d5 bc 2c da 1a 3d
       -0.016542243 -0.07932019 -0.026097042 0.03780572
000030 29 ac ab bd 4d f8 7c 3d f0 dc 57 bd 3d 12 d5 bb
       -0.08382446 0.061760236 -0.052700937 -0.0065024183
000040 3f 1c aa 3c f6 3f a6 bc fb 7f 48 3d 36 67 1e bd
       0.020765422 -0.02029417 0.048950177 -0.03867265
000050 ba 7d d5 bc a9 fe 99 3d 1d c6 64 bd fd d2 44 3c
       -0.026060928 0.07519276 -0.055852998 0.012013194
000060 e6 b5 82 3c de d3 18 3d 4b 6f 98 bd eb 1c b8 3d
       0.015955877 0.037311427 -0.074431024 0.08989891
000070 d6 e3 48 bd cc 8e fd 3a ae 4d ae 3b d3 51 43 3d
       -0.049045406 0.0019344925 0.0053193187 0.047685456

conv3.weight f4 [32, 32, 3, 3]
000000 cc 28 07 3c a5 41 de 3b 6a 58 6e bd 0d ba 35 bd
       0.008249473 0.006782728 -0.058189787 -0.044366885
000010 13 57 fc 3c 66 18 86 bd 54 ed 09 bd 31 f9 2e bd
       0.030803239 -0.065476224 -0.0336736 -0.042718116
000020 59 25 cc bb 3c 18 ec 39 90 23 f3 3c 4e 26 f6 3c
       -0.006230038 0.00045031484 0.029680043 0.030047562
000030 d8 0b 69 bd d9 34 69 bb 25 96 cb bc 7e 9e 20 bd
       -0.05689606 -0.0035584478 -0.024851868 -0.03921365
000040 fc c5 db bc d6 7e 3c bc 3f 99 f0 3a 2f 1c dd bc
       -0.026827805 -0.011504849 0.0018356218 -0.026990978
000050 7e d6 dc 3c 59 25 4e 3d 08 57 39 bd 04 a3 4c bc
       0.026957747 0.050328586 -0.045249015 -0.012490038
000060 42 76 29 bd 45 68 20 3d 27 e3 a5 3c 4f ef 1f bc
       -0.041372545 0.03916194 0.020249916 -0.009761645
000070 56 4b 24 3d 19 30 1a bd 93 65 33 bd c6 25 cc bc
       0.04011091 -0.037643526 -0.04379804 -0.024920356
000080 4c e0 2c bd 3b b0 68 3d 26 5b 4b 3d 14 30 f8 bc
       -0.042206094 0.05680869 0.049647473 -0.030296363
000090 4a 1a 91 3c ba e6 83 3d 54 0e 9a bc 95 cc 17 3c
       0.01771273 0.06440492 -0.01880566 0.009265085
0000a0 f2 12 53 3d 1d c8 37 bd 2c ce e6 bc f4 ca be bb
       0.05153174 -0.044868577 -0.028174482 -0.0058225337
0000b0 85 f4 e4 3a af 15 57 3c 49 be 4c ba 80 eb aa bc
       0.0017467892 0.013127728 -0.0007810337 -0.020864248
0000c0 8a f4 1d bd 6f 41 3e 3d 49 23 bb bc c5 49 1a 3d
       -0.03856329 0.04644912 -0.022843974 0.03766801
0000d0 a6 7e 44 3d 81 4f 85 bc f0 56 22 bd e8 f3 0c 3d
       0.047972344 -0.016273262 -0.03963369 0.034412295
0000e0 2a c2 8e bc 22 ed 06 bd 34 b9 28 bc 53 6c bf 3c
       -0.017426569 -0.03294099 -0.010298062 0.023367083
0000f0 40 fc 21 bd 36 f8 c0 3c ca 00 bf 3b 98 69 f7 3b
       -0.039547205 0.023555856 0.0058289515 0.0075504296
000100 95 8a 39 bd da e2 35 bd d7 6e 84 3c 59 7d 77 ba
       -0.045298178 -0.044405796 0.016166134 -0.00094409805
000110 ec db ea bc 4a 8f 45 3d 01 a1 4e 3d e2 ec 2b 3d
       -0.02866932 0.048232354 0.050446514 0.041973956
000120 49 c1 28 bd 67 2e 73 bc 4b 38 22 3d 40 3f 0c bd
       -0.041199956 -0.014842606 0.039604466 -0.034240007
000130 a2 b6 df 3b 58 87 c6 3c 98 29 80 bc 9f a2 a2 3c
       0.0068271914 0.024234459 -0.015644833 0.019852934
000140 a2 53 fe bc 2a 06 d3 3c a1 62 0e 3d bc a7 c4 bc
       -0.031045739 0.025759775 0.03476203 -0.024005763
000150 91 34 2c 3c a3 81 2f 3c 08 1d 0d bd 8f ed 21 bd
       0.01051058 0.01071206 -0.034451514 -0.039533194
000160 1d 1a 1c 3d e1 c2 7b bd 57 a5 1b bd 45 41 74 3d
       0.03811084 -0.061465148 -0.037999477 0.05963256
000170 5f 91 a8 bc ef 3c aa 3c fb 0a c1 bc 8a c9 d3 bb
       -0.02057713 0.020781009 -0.023564806 -0.0064632343
000180 66 66 21 3d a4 93 50 bc 1a 2e 24 bd f1 c5 12 3d
       0.039404295 -0.012730513 -0.04008303 0.035833303
000190 49 99 0d 3d 1b 3b 1d bd 79 f9 a9 bc 1e d3 63 3d
       0.034570012 -0.038386445 -0.02074884 0.05562126
0001a0 e2 0f 02 39 b4 5d 68 3d 30 70 23 3b d5 c7 3e 3d
       0.00012403683 0.056729987 0.0024938695 0.046577293
0001b0 29 7a 18 3d 42 22 96 bd 7f 54 f9 3c dd b8 04 3d
       0.037225876 -0.07330753 0.030435799 0.032402862
0001c0 7f 13 1d bd 2a f5 95 3c 6b 92 80 bd 50 b5 34 bd
       -0.03834867 0.01830538 -0.06277927 -0.044118226
0001d0 b1 2c bd 3c a7 e7 47 bd d2 ec 26 bc c3 92 ab bc
       0.0230926 -0.048804905 -0.010188298 -0.020944005
0001e0 9c c0 52 3d 6c c0 f7 bb bb ac 1b ba cb 73 29 3d
       0.051453218 -0.0075607803 -0.00059385196 0.041370194
0001f0 20 39 02 3d 8f 0f b4 bc 4a 99 c7 3b 49 92 31 3d
       0.03179276 -0.021980075 0.0060912715 0.0433524
000200 02 ee 79 3c f0 0f f9 bc dd e7 a2 3c b7 3f 3e bd
       0.015254499 -0.030403107 0.019885952 -0.046447482
000210 6e 22 8b bd b0 ca 32 3c b8 cd 75 bd 7e 44 62 3d
       -0.06793676 0.010912582 -0.06001064 0.0552411
000220 2c fe 10 3c b5 b1 8b 3a 64 55 8d 3b b9 f5 c2 3c
       0.008849662 0.0010657819 0.004313158 0.02379881
000230 af bf 77 3d 23 41 00 bd 6a 45 c3 bc e5 39 23 3d
       0.060485538 -0.03131212 -0.02383681 0.039850134
000240 8b 63 18 bd 79 4f de bc 94 e8 27 bd a6 f7 16 3d
       -0.037204307 -0.027137505 -0.04099329 0.03685727
000250 2d 4e 0f bd 0d 4a ca bc e2 19 12 3c 8c 45 4b bc
       -0.034986664 -0.024693513 0.008917304 -0.012406718
000260 68 3b 33 bd 27 f3 fd 3b 0d ef a9 3c 36 5c 9e 3c
       -0.043757826 0.0077499333 0.020743871 0.019331079
000270 83 61 07 3a f0 8c 56 3c 94 ff 71 3d c5 e8 0f 3d
       0.00051643717 0.013095126 0.05908163 0.035134096
000280 01 89 70 3d 69 90 f6 bc d6 69 0e bd be 2f bf 3b
       0.058724407 -0.030098157 -0.0347689 0.0058345487
000290 15 b7 75 3b 37 f9 b5 bc 6e 80 1f 3d 06 01 a9 3c
       0.0037493159 -0.022213561 0.03894084 0.02063037
0002a0 a9 e5 07 3c bd f3 42 3d b6 26 af bc a6 3f 26 bd
       0.008294501 0.04759573 -0.021380764 -0.040588044
0002b0 04 40 10 3d e1 41 77 bd 44 1d ee bc f0 e2 55 bc
       0.0352173 -0.06036556 -0.02906669 -0.013054594
0002c0 8c 5d 1f bc d2 76 86 bd 4c 5e 2e 3d a3 1b 87 3c
       -0.009726893 -0.06565632 0.042570397 0.01649267
0002d0 fe a3 52 3d 29 bf 8d 3b 71 f9 ec 3a 47 4a 05 3d
       0.051425926 0.0043257666 0.001807971 0.03254154
0002e0 5c d5 46 3b 91 d6 26 bd 42 df 69 3d 3b 3c 1c 3d
       0.0030339574 -0.04073197 0.05709768 0.038143378
0002f0 f0 30 a8 3c bf 43 29 bd d0 70 a2 bd ea 55 a7 bd
       0.020531148 -0.041324373 -0.079316735 -0.08170684
000300 79 d9 23 bd 13 db 0e 3c 2a 86 9d bc 10 f1 ed bb
       -0.04000232 0.008719224 -0.019229013 -0.007261403
000310 7c 20 8e bc ea a5 1e 3c 80 4d 77 3d 5a d1 a3 3d
       -0.017349474 0.009683112 0.060376644 0.07998915
000320 c6 8e d3 bc 6e 96 9f bc 82 a7 98 3c b3 6a a1 3b
       -0.025824916 -0.01948091 0.018634561 0.0049260496
000330 69 26 54 3d 6c 31 01 bd 34 da 3b 3d c9 14 b0 bc
       0.051794443 -0.031541273 0.04586239 -0.021494286
000340 39 9b a8 bc b3 12 bc 3c ee 24 42 bb db 24 28 3d
       -0.020581828 0.022958135 -0.0029624063 0.041050773
000350 36 c7 78 bd 29 ae b1 3b 26 6f 49 3d ee a1 7b bd
       -0.060736857 0.005422373 0.049178265 -0.061433725
000360 64 d2 ef 3c 44 37 3f bc 97 08 34 3d 59 46 d0 bc
       0.029275127 -0.011670891 0.043953504 -0.02542417
000370 1d 6d 5e 3d e0 e5 24 bd d0 09 30 3d 09 2a cf bc
       0.054303277 -0.04025829 0.042978108 -0.025288599
000380 6a 1f 0f bd 7d 75 0d 3d 44 31 cf 3c 28 3a e4 3c
       -0.03494207 0.034535874 0.025292046 0.027859762
000390 54 ae 75 bc 70 83 9f bc 62 03 4c bd 79 0d 33 3d
       -0.014995176 -0.019471854 -0.049807914 0.04371402
0003a0 c1 72 38 3b e7 03 40 bd 6e bd 85 3d 22 8c 94 3d
       0.002814457 -0.04687872 0.065302715 0.07253291
0003b0 ff 3e 3c bb 99 ce 54 3d 9f e8 43 3c de 97 7c bd
       -0.0028724072 0.05195484 0.011957317 -0.06166827
0003c0 f8 9b 8c 3c 04 30 f3 3c 3e e5 8f bc 9d d4 29 bd
       0.017164215 0.029685982 -0.017565366 -0.04146253
0003d0 44 0e fb 3c 24 59 9b bb 51 e0 06 3d b2 76 74 3d
       0.03064645 -0.004740851 0.03292877 0.05968351
0003e0 1e 19 08 bd f6 a3 0b 3c ff 4d d9 bc 19 89 07 bd
       -0.03322708 0.008522978 -0.02652645 -0.03308973
0003f0 c0 07 3a 3c 58 47 91 3c bb aa 6d bd d5 b0 4e 3c
       0.011354387 0.017734215 -0.05802415 0.012615402

conv3.bias f4 [32]
000000 b7 bd e1 3a d5 2e 19 bd 5e 5d 4c bd 8a 9f 0e bb
       0.0017222677 -0.037398178 -0.04989373 -0.0021762573
000010 9f f2 ef 3c fc 4e 1e 3c 08 8d d0 bc b4 6c 8a 3d
       0.029290495 0.009662386 -0.025457874 0.06759015
000020 85 7e 03 bd 08 97 15 bd 4b f1 82 bd c8 e4 04 bd
       -0.03210308 -0.036520988 -0.06393679 -0.032444745
000030 2d 93 1f bc b2 76 19 bc 81 fe cc 3c 19 aa 82 3d
       -0.009739679 -0.009366678 0.0250237 0.063801
000040 1e 7a d5 bc e0 b1 9b 3c 5e 9c 12 3c 45 d3 4b bb
       -0.026059207 0.019005716 0.008948414 -0.0031101268
000050 a1 ca 33 bd 8a 20 69 bd fd 9c 3e 3d 37 80 ef bc
       -0.043894414 -0.056915797 0.046536434 -0.029235942
000060 c8 bf ff 3c ec c3 19 3d 6a 4b 69 bd 35 48 2f 3d
       0.031219378 0.03754036 -0.056956686 0.04279347
000070 50 4b 10 bd 2e ec 7d 3d e8 b7 56 3d e4 64 73 3d
       -0.035228074 0.061992817 0.05242148 0.05942239

conv4.weight f4 [1, 32, 3, 3]
000000 6f ab 2b bb d3 87 40 bd 09 b7 10 bd 95 b0 b8 bb
       -0.0026194712 -0.047004532 -0.035330806 -0.0056362846
000010 7e 05 66 3c 00 7f b2 bc d1 c6 4b 3d f4 34 2c bd
       0.014039395 -0.021789074 0.049750153 -0.042042688
000020 68 45 bd ba 16 b8 3f 3c b8 bb 83 b9 bf bc 3a bd
       -0.001444024 0.011701604 -0.00025126128 -0.04559016
000030 a3 09 fe bb 7a cb 9a bd f4 92 67 bd 87 ce f6 3b
       -0.0077526136 -0.07558341 -0.05653663 0.007531944
000040 78 26 04 ba 95 22 48 bd 5d b9 91 bc e5 2b b2 3c
       -0.00050411327 -0.048861105 -0.017788583 0.021749446
000050 9a 5a 32 3d 9e 8e ad 3c 53 bd 80 3c c2 25 f2 3c
       0.043543436 0.02118617 0.015715277 0.02955902
000060 1b 71 50 3d 0f d2 30 bc a4 02 bf 3c 52 8e 0e 3c
       0.050889116 -0.010792269 0.023316689 0.008700924
000070 a7 0d 4f bc 44 5c 56 3d 97 00 32 bd 23 6b ea 3c
       -0.012637532 0.052334085 -0.043457594 0.02861554
000080 4f 1e 1c bc 1d c6 cd 3c 6f 12 ba bc 65 7a c1 3c
       -0.0095287105 0.025118882 -0.022713868 0.023617933
000090 85 5d 43 3d b8 1c 5f bd b2 d2 b5 3c 57 2f f5 bb
       0.04769661 -0.054470748 0.022195194 -0.00748245
0000a0 ae aa f7 bc 3f 8d 17 bd 59 fd 7e bb ed 27 95 3c
       -0.030232754 -0.036999937 -0.0038908331 0.018207515
0000b0 e5 cc 19 3d cc f7 21 bd 29 d0 a0 3c 9e bf c8 bb
       0.03754892 -0.03954296 0.019630508 -0.006126358
0000c0 e7 6a eb 3c d3 c1 50 3d 1a 21 1a bd ab f1 e3 3c
       0.028737498 0.050966095 -0.037629224 0.027825197
0000d0 2e 4b 3e 3d 83 82 47 bc ee ee 1f 3d ec e9 0c bd
       0.046458416 -0.0121771125 0.03904622 -0.034402773
0000e0 10 27 fe 3b 89 79 88 bc b1 a7 b8 bb 25 7b ed 3c
       0.0077561215 -0.016659515 -0.0056352247 0.028989384
0000f0 d9 25 e6 bc 8f 72 87 3c 24 8d 46 3c 15 d5 91 bc
       -0.028094219 0.016534118 0.0121186115 -0.0178018
000100 95 2a a6 bc bc 4f a2 3c b8 97 3e bd 4a d3 70 bd
       -0.020283977 0.019813411 -0.04653141 -0.05879525
000110 e2 b8 f8 bc c5 9a 63 bb 51 0f 17 3d 0e ab 35 3d
       -0.030361596 -0.00347297 0.03687984 0.044352584
000120 ae 44 26 bc 26 ac 17 3d 5a 66 e7 bc be 09 a6 3b
       -0.01014821 0.037029408 -0.028247047 0.0050670793
000130 66 50 db 3c d6 16 17 3d 6f 93 34 bd 27 77 1a bd
       0.026771735 0.036887012 -0.044085916 -0.03771129
000140 b1 bd ae bb 7d 6c 2b bd 83 f8 11 bd 84 df a1 3c
       -0.0053326716 -0.04185151 -0.03563739 0.0197599
000150 bd c9 27 bd 0e a7 22 3d fd 02 59 3a 41 7f 38 bd
       -0.040963877 0.039710097 0.00082783384 -0.045043234
000160 11 fa 83 3d 68 e2 07 bc db 66 9f 3c 57 07 04 3a
       0.06444181 -0.008293726 0.019458225 0.0005036494
000170 cf f7 28 3d 13 c3 57 bd 1c 79 34 3d 24 d8 24 3d
       0.041251954 -0.05267627 0.04406081 0.04024519
000180 81 8f bc bc 43 37 e8 3c f3 67 75 bd b0 35 f7 3c
       -0.023017647 0.028346663 -0.059913587 0.030176967
000190 79 ba cf bc 31 e8 af 3c 2e 67 09 3d e3 19 15 bc
       -0.025357472 0.021473022 0.033545665 -0.00910041
0001a0 e4 db 43 bd 36 06 23 bd 3d 5d 4f bb 2f 4c e3 bc
       -0.047817126 -0.039800845 -0.0031641268 -0.027746288
0001b0 65 0c 42 bd 55 4e 3c bd bd fc 97 bc d3 7b e4 3c
       -0.0473751 -0.04597314 -0.018553132 0.027891075
0001c0 eb 52 fc bb 01 fb 32 3d f4 a3 73 3c 8e a1 5b 3d
       -0.0077003143 0.043696407 0.014870632 0.053620867
0001d0 48 7b 10 bd 1b bc 20 bd dc a4 c7 bc 03 ed 71 bd
       -0.03527382 -0.03924189 -0.024370603 -0.059063923
0001e0 c4 b8 16 3d 1a 2c 1e bd c5 0d 45 3d a1 83 b2 bc
       0.0367973 -0.038616277 0.048108835 -0.021791281
0001f0 53 30 16 bd 4a a2 9c 3c 3b 1f 7a bd fd 91 15 bd
       -0.03666718 0.019120354 -0.06106494 -0.03651618
000200 3c 63 97 3c 80 06 bb 3b 6b 2c 8a bc 31 66 16 3d
       0.018479936 0.005707562 -0.016866883 0.03671855
000210 99 6a e2 bc d8 63 55 3c fc 03 0a 3d dd 20 57 3c
       -0.02763872 0.013024293 0.033695206 0.013130394
000220 b1 34 0b 3d 9d 69 68 bd 02 a4 24 3d 49 d0 7e bd
       0.033985797 -0.056741346 0.040195473 -0.062210355
000230 99 f2 d7 bb 10 35 09 bc 47 4a 35 bd 80 27 ae 3c
       -0.006590199 -0.0083744675 -0.04426029 0.02125907
000240 be a4 a3 3c 5a 42 52 bd 9b 64 50 bc 07 6d be bc
       0.019976016 -0.05133281 -0.012719299 -0.023245348
000250 17 d5 bd 3b 06 0e 83 bc 51 4f cd 3c 42 cd 07 3d
       0.0057932246 -0.015997898 0.025062235 0.033154733
000260 fb e6 42 3a db dd 68 3c f9 5d 72 bd 02 d4 21 bd
       0.00074349315 0.014213051 -0.05917165 -0.039508827
000270 f6 70 37 3c 15 3e 79 bd 1f b8 75 3c 2c 92 43 3c
       0.011196366 -0.06085022 0.014997511 0.011936706
000280 08 3a 1f bd d9 25 55 bd ce e6 81 3c ce 23 65 bd
       -0.038873702 -0.052038047 0.015857127 -0.05594235
000290 47 54 c1 3c 23 6e 3d 3d eb 77 6e 3c 5c 30 c6 3b
       0.023599757 0.046247613 0.014554958 0.0060482454
0002a0 b4 57 7e bd b5 c9 ea ba 72 b8 07 3d 96 a0 4d 3d
       -0.06209536 -0.0017912897 0.033134885 0.050201975
0002b0 cb 97 2e 3d c1 e8 0a bd c0 b4 4b bd 40 3f 0a bd
       0.04262523 -0.033913378 -0.049732924 -0.033751726
0002c0 01 cb e7 bc 61 79 97 bc be 10 04 bd 3d a3 c8 bb
       -0.028295042 -0.018490495 -0.03224253 -0.006122975
0002d0 ab 6a 04 bd 33 c3 6c bd 51 9b 61 bd 98 a3 4a 3d
       -0.03232829 -0.057803344 -0.055079762 0.04947242
0002e0 8e a5 4e bc bd 28 39 bc 21 a8 21 3d 04 59 0c bd
       -0.0126127135 -0.011301217 0.03946698 -0.03426458
0002f0 0a 51 0a bd fd 1a 15 3d e5 07 03 bc 28 d0 79 bc
       -0.03376869 0.03640269 -0.007997488 -0.015247382
000300 c0 bc 0a 3d 32 71 87 3c 27 cc af 3a 61 ef a5 3c
       0.033871412 0.016533468 0.0013412283 0.020255746
000310 45 4c 49 bc 66 d3 3c bd a4 3f 1f 3d 83 83 e2 3b
       -0.0122862505 -0.046100043 0.03887905 0.00691265
000320 61 b8 be bc 97 a5 a1 3c 4f dc e8 bc 66 3d 0c bd
       -0.023281278 0.01973228 -0.028425364 -0.03423824
000330 97 08 32 3d 5e 83 10 3c 29 39 fb bc 75 89 dd 3c
       0.043465223 0.008820383 -0.030666905 0.027043084
000340 ea 5e a4 3b 24 42 07 bc 55 39 e5 3b b0 88 ee 3c
       0.0050161975 -0.008255515 0.00699536 0.029117912
000350 4f 10 1f 3d e7 eb 17 bd 2f 36 b1 bc 00 17 34 bd
       0.038833912 -0.03709021 -0.021632282 -0.043967247
000360 e8 ce 15 bd 9e fc c6 3c bb 82 17 bd ea 0c eb bc
       -0.036574274 0.02429038 -0.03698991 -0.028692681
000370 48 45 cc 3c 32 4e f6 3b ce f3 fc bc 4c 19 91 3c
       0.02493538 0.007516646 -0.030877974 0.017712258
000380 dc 5c 0b 3c ac 44 5e 3d 34 5d 3c 3d e3 bb 0f 3d
       0.008506026 0.05426471 0.045987323 0.035091292
000390 5d 8f 32 3d fb ff 28 3d df 9a 93 3c 38 50 d5 bc
       0.043593753 0.041259747 0.018018184 -0.026039228
0003a0 32 43 80 bc 69 68 13 bd f1 ab 41 3c 47 53 8d ba
       -0.015657041 -0.035988245 0.011820779 -0.0010782265
0003b0 38 07 30 3d 91 d9 96 3c a0 0f 17 bd d4 6d b7 3c
       0.042975634 0.01841429 -0.036880136 0.022391237
0003c0 ec 50 c5 3b 98 e2 57 3d 79 55 57 3c 35 6b f2 3c
       0.0060216095 0.05270633 0.013142937 0.029592136
0003d0 90 ee fa bb b3 7f 93 bb 13 f4 2d bd 94 d4 db bc
       -0.0076578334 -0.004501307 -0.042469095 -0.026834764
0003e0 5d 4d 7f bb 37 67 49 3d 6f c7 9f bc c5 eb cc 3c
       -0.0038956024 0.0491707 -0.019504277 0.025014767
0003f0 fd 5f 39 bd 95 4c 21 bd 72 f5 26 bc 6c 81 57 bd
       -0.045257557 -0.039379675 -0.010190355 -0.05261366

batch_1.weight f4 [16]
000000 20 ff 7c 3f d2 ea 7d 3f ec 94 7d 3f 5d 31 7e 3f
       0.9882679 0.9918643 0.9905536 0.9929407
000010 1a 67 7f 3f 03 ac 80 3f e3 19 80 3f ea bf 78 3f
       0.99766695 1.0052494 1.00079 0.9716784
000020 1d e1 7a 3f f1 a5 7d 3f 38 61 80 3f cb b8 78 3f
       0.97999746 0.9908133 1.0029669 0.9715697
000030 f1 3e 7c 3f 32 f0 7e 3f b3 13 85 3f 78 b4 81 3f
       0.9853354 0.9958526 1.0396637 1.01332

batch_1.bias f4 [16]
000000 05 ec 74 bc 67 5a 38 3c 58 4b 41 bc 9e 59 bb ba
       -0.01494885 0.011252022 -0.0117977485 -0.0014293676
000010 96 b0 07 3c 0b cd 1b bc 98 ff 18 3d e6 6f 82 bc
       0.008281847 -0.009509335 0.03735313 -0.015922498
000020 6e e4 91 bc 19 0d 53 bc ba 37 80 bb e9 ff be 3b
       -0.01780912 -0.012881541 -0.003912893 0.0058288467
000030 87 f5 97 bc ef f5 a2 bc 4e 4a c0 bc 53 c6 d0 3c
       -0.018549694 -0.01989266 -0.023472931 0.025485193

batch_1.running_mean f4 [16]
000000 58 73 06 47 c0 84 3a 46 29 1f d7 c6 9b cf 9f 46
       34419.344 11937.1875 -27535.58 20455.803
000010 db 63 01 46 f0 23 c5 c5 b9 b2 1f 45 95 30 20 c6
       8280.964 -6308.492 2555.1702 -10252.1455
000020 6c c6 b3 c5 de 69 03 c7 e4 8f db c6 5b 88 dc 45
       -5752.8027 -33641.867 -28103.945 7057.0444
000030 3d 10 d3 c5 93 42 41 c7 72 43 40 c6 4d 24 d4 44
       -6754.03 -49474.574 -12304.861 1697.1344

batch_1.running_var f4 [16]
000000 14 19 bc 4d 18 7b 3f 4c b5 0b 79 4d 7d 60 08 4d
       3.9447e+08 5.019555e+07 2.6114338e+08 1.4300155e+08
000010 98 0e d5 4b da 92 5d 4b bb fa fd 4a 7e 55 23 4c
       2.7925808e+07 1.452105e+07 8.3223975e+06 4.2817016e+07
000020 e3 99 a0 4b bd c9 b5 4d 1a 8c 7b 4d c8 07 f1 4b
       2.105031e+07 3.8123715e+08 2.6376643e+08 3.1592336e+07
000030 69 30 92 4b da 0f 42 4e b8 1c 56 4c bf 19 49 4b
       1.9161298e+07 8.139547e+08 5.6128224e+07 1.3179327e+07

batch_2.weight f4 [32]
000000 18 4b 7f 3f 58 4d 7f 3f a9 af 79 3f 4c 5f 7c 3f
       0.9972396 0.9972739 0.9753366 0.9858291
000010 6b 1a 7a 3f d9 1e 7b 3f b9 6a 7e 3f 1d ad 7d 3f
       0.9769656 0.98093945 0.99381596 0.99092275
000020 7e e2 7f 3f c4 05 7f 3f 56 79 7d 3f 69 74 80 3f
       0.99954975 0.9961817 0.9901327 1.0035526
000030 e8 dc 7c 3f 62 c2 79 3f e2 82 7f 3f 80 d5 7f 3f
       0.98774576 0.9756223 0.99809086 0.9993515
000040 e5 fe 7d 3f 5d 91 7d 3f a1 b5 7f 3f c0 e6 7e 3f
       0.99217063 0.9904993 0.9988652 0.99570847
000050 fa b0 7c 3f e6 e9 80 3f 27 52 7c 3f 4f d1 7f 3f
       0.98707545 1.007138 0.98562855 0.99928755
000060 d0 d1 80 3f d1 ef 80 3f 59 10 81 3f 24 0a 80 3f
       1.006403 1.0073186 1.0083114 1.0003095
000070 76 f8 7c 3f c2 80 7f 3f 25 f0 7e 3f 79 a3 7b 3f
       0.9881662 0.99805844 0.9958518 0.98296314

batch_2.bias f4 [32]
000000 80 be 0b bc b9 21 02 bc 5b 11 9c bc 7c 8c 26 bc
       -0.008529305 -0.00794261 -0.019051244 -0.01016533
000010 e3 06 6a bc 0f 30 84 bc 24 7f 52 bc 4a 05 d5 bb
       -0.0142838685 -0.016136197 -0.0128476955 -0.0065008746
000020 3d 71 e9 3b 51 45 36 bc 79 7d b6 bc 42 28 0e 3b
       0.0071240948 -0.011124925 -0.022276627 0.0021691476
000030 e7 5e 1c bc bc 25 a9 bc ef 5f a4 bb f5 05 f0 ba
       -0.009544111 -0.020647876 -0.005016319 -0.0018312322
000040 1f 05 fe bb d7 52 2d bc c0 2c c5 3a a8 2e 41 bc
       -0.0077520753 -0.010578833 0.0015043244 -0.011790909
000050 0e b0 02 bc a8 05 b5 3a 8e 5e 11 bc 29 3f 18 bc
       -0.007976545 0.001381089 -0.008872641 -0.009292402
000060 22 22 f9 ba fb 16 2c bc b4 f2 5a bb ef f3 d1 3b
       -0.0019007365 -0.010503526 -0.0033408822 0.006407253
000070 39 2a 0c bc b8 aa 6e bc de fe 5e 3c 2b 3a 9f bc
       -0.008554989 -0.01456707 0.01361057 -0.019436916

batch_2.running_mean f4 [32]
000000 b0 45 82 be 4f c9 99 be 3f 30 79 be f8 7f 89 3e
       -0.25443792 -0.300364 -0.2433481 0.26855445
000010 d1 38 ac bb e3 04 ee be 9f 74 24 3e d7 c9 ca 3e
       -0.0052557965 -0.46488103 0.16060112 0.39607117
000020 ca a9 21 be c7 dd 9e be 73 3c d4 3d c0 92 30 3f
       -0.15787426 -0.31028578 0.10363092 0.6897392
000030 30 e1 94 be 1f 0a 75 3e 2e fb a2 be a9 92 09 be
       -0.29078054 0.23929642 -0.3183226 -0.13434853
000040 16 7f 45 3e 41 42 3f 3e dd d0 8e be 08 cb eb be
       0.1928676 0.18677618 -0.27893725 -0.46053338
000050 cb bc 84 be b0 03 a3 be e7 7c 88 be cf b7 b9 3e
       -0.25925288 -0.3183875 -0.26657793 0.36273047
000060 c8 a3 48 3d f5 45 9c 3e 22 0e c1 3e 31 84 10 3f
       0.04898432 0.30522123 0.37706095 0.5645171
000070 5d 22 39 3e 78 2d 97 3e ff 9d d2 be 5b a2 3d 3d
       0.18079515 0.29526877 -0.41136166 0.046297412

batch_2.running_var f4 [32]
000000 1f 56 6d 3e ad 9f 44 3e e0 c1 3c 3e f9 45 19 3e
       0.23177384 0.19201536 0.18433332 0.14968099
000010 b6 7c d8 3d 7a 27 44 3e e3 60 4e 3e e8 41 12 3f
       0.10570662 0.19155684 0.20154147 0.57131815
000020 05 c3 ff 3e 7c 73 2a 3f 8c fc 41 3e 31 ae 0b 3f
       0.49953476 0.66582465 0.18943995 0.5456267
000030 81 5c 61 3e fe ce 4e 3e 05 60 44 3e 3d 07 e5 3e
       0.22007944 0.20196149 0.19177254 0.44732085
000040 03 8b 5d 3e b9 2b a4 3e 04 92 52 3e 81 e8 50 3f
       0.2163506 0.32064608 0.20563513 0.8160477
000050 95 6e 66 3e fa 32 80 3e a5 2c 0d 3e b9 5b 7e 3e
       0.22503121 0.25038892 0.13786562 0.24839677
000060 84 28 28 3e c1 07 0c 3e b6 b4 b9 3e eb a0 85 3e
       0.16421705 0.13674833 0.36270684 0.26099333
000070 f6 a8 17 3f 0d 3a 3b 3e be 9b 69 3e d8 e4 27 3e
       0.5924219 0.18283863 0.22813317 0.1639589

batch_3.weight f4 [32]
000000 ac 8e 80 3f 36 68 81 3f 00 c7 7f 3f c9 81 7f 3f
       1.004354 1.0109928 0.99913025 0.9980741
000010 c7 e9 7c 3f 9b 0d 7f 3f bc 8d 7e 3f 6d 3f 7c 3f
       0.98794216 0.99630135 0.9943502 0.9853428
000020 4f 5a 7a 3f 71 d9 7c 3f 23 2b 7d 3f d7 7a 7d 3f
       0.9779405 0.9876929 0.98893946 0.99015564
000030 97 28 79 3f 91 80 7f 3f 85 ba 8b 3f ee 5f 80 3f
       0.9732756 0.9980555 1.0916296 1.0029275
000040 62 70 7b 3f a7 c0 80 3f 42 35 7d 3f 93 01 80 3f
       0.9821836 1.0058793 0.9890939 1.000048
000050 3f 4c 80 3f 1c 88 7c 3f 4f 9c 81 3f 84 c7 7b 3f
       1.0023268 0.98645186 1.0125827 0.9835131
000060 78 c8 7b 3f de c1 7c 3f 51 3e 7f 3f 96 9a 7a 3f
       0.98352766 0.9873332 0.9970446 0.9789213
000070 4b 74 7f 3f 5d 19 80 3f 7c a9 7c 3f b7 c7 7b 3f
       0.99786824 1.000774 0.9869611 0.98351616

batch_3.bias f4 [32]
000000 d9 4f 84 bb 8c e2 02 bc 0e fe 6b ba 2c e0 e9 bb
       -0.004037839 -0.007988583 -0.00090023957 -0.007137319
000010 9a a1 80 ba 22 30 13 bc d8 a5 95 bc e4 f9 4e bb
       -0.0009813786 -0.008983644 -0.018267557 -0.0031582052
000020 70 f4 8b bc 41 e3 3b bc 12 c2 94 bc d7 04 a5 3a
       -0.01708433 -0.011467756 -0.018158946 0.0012589943
000030 a3 45 92 bc eb 75 a5 3c af a8 33 3c 86 39 64 3c
       -0.017855471 0.02019783 0.01096551 0.01392973
000040 42 1d 3e bc c5 7d 2d 3c 19 ba 4a bc 71 e2 03 3c
       -0.011603655 0.010589068 -0.012373471 0.008049593
000050 e5 08 a2 bb 62 30 16 bc 84 fa 4d bb e1 32 8d bc
       -0.004944908 -0.009166809 -0.0031429837 -0.017236175
000060 4c 4d 38 bc 39 f6 22 bc 4c 5e 71 3b 41 32 93 bc
       -0.011248898 -0.009946399 0.0036829887 -0.017968299
000070 d6 a0 d6 3b 4d 42 5e 3b 34 74 8b bb 86 94 26 bb
       0.006549935 0.003391403 -0.004255796 -0.0025418117

batch_3.running_mean f4 [32]
000000 6b f2 d8 3e 2d 47 e9 3d 28 a0 63 be 32 a1 35 be
       0.4237245 0.11390529 -0.22229064 -0.17737272
000010 59 3b 9d 3d f5 a3 f8 3d 8f fd 02 bd 67 00 50 3d
       0.07677335 0.12140647 -0.031980094 0.050781634
000020 f8 5e 25 bd 9b ff 18 bd fc aa 8d bd 98 fa 0d 3e
       -0.040373772 -0.03735314 -0.06917378 0.13865125
000030 4d a2 b9 3e 9c 75 be 3e 04 8d c4 bd ac 1a 12 be
       0.36256638 0.37199104 -0.09597209 -0.14267987
000040 7d ca d1 be dc a0 dd 3d 96 d6 62 3e e2 86 e6 3d
       -0.409748 0.10821697 0.2215217 0.112561956
000050 fa 3a fa 3d 8e 0e 72 be dd 0e 32 3e 98 f5 8a be
       0.1221828 -0.23638365 0.17388482 -0.27140498
000060 34 23 09 be a1 e1 79 3e 10 c2 0d be 0b ad b5 3d
       -0.13392335 0.24402477 -0.1384356 0.08870896
000070 a3 f7 7d be 72 f5 95 3e 77 dc c4 be 55 6e d7 be
       -0.24801497 0.29288822 -0.3844945 -0.42076364

batch_3.running_var f4 [32]
000000 4a 80 7b 3e 1c 03 77 3e 1f 25 1c 3e cf 9c a2 3e
       0.24560657 0.2412228 0.15248536 0.3176026
000010 bb 2e a8 3e 26 82 14 3f 34 70 f2 3e e8 14 89 3e
       0.32848153 0.5801109 0.4735123 0.26773763
000020 06 e3 84 3e c7 6b c0 3e 63 29 8b 3e de 41 0a 3f
       0.25954455 0.37582228 0.27180013 0.54006755
000030 6d e7 a2 3e 33 db c1 3e d1 67 0d 3e 7a 6b 1b 3f
       0.3181719 0.37862548 0.13809134 0.6071087
000040 db 8c fb 3e 52 c7 a8 3e ef c9 e5 3e 59 1c c4 3e
       0.49130902 0.3296457 0.44880626 0.38302878
000050 dc 2a 54 3e 56 50 a2 3e d6 61 0a 3e 99 06 ee 3e
       0.20719475 0.31701916 0.13513884 0.4648941
000060 ce 9e 8c 3e 7f 05 95 3e a8 3a 70 3e 2d ac 58 3e
       0.27464908 0.29105756 0.23459876 0.2115943
000070 1d 24 0c 3f 40 f3 9f 3e cd 7b 66 3e 31 5a a5 3e
       0.54742604 0.31240273 0.22508164 0.32295373
