model.pt (torch, 33617 bytes, 19 tensors)

conv1.weight f4 [8, 1, 3, 3]
0	0x3e8abfce	0.2709946
1	0x3e65644b	0.2240154
2	0x3e6f1007	0.23345958
3	0xbea5e581	-0.3240166
4	0x3eacb1ce	0.33729404
5	0xbd141094	-0.036148623
6	0x3e821839	0.25409105
7	0x3e3a75aa	0.18208948
8	0xbe791df0	-0.24327826
9	0xbe621147	-0.22076903
10	0xbdd3dff2	-0.103454486
11	0xbdde4e38	-0.10854763
12	0x3e829524	0.2550441
13	0xbdd843de	-0.1055982
14	0x3e3f4ea7	0.18682347
15	0x3e40a53a	0.18813029
16	0xbe4536ad	-0.19259138
17	0xbe63fbcf	-0.22264026
18	0xbd3617d3	-0.044456314
19	0x3b528034	0.0032119872
20	0xbca052e9	-0.019570785
21	0x3ea7a0b4	0.32739794
22	0xbe8fdc27	-0.2809765
23	0x3e7de4f9	0.24794377
24	0x3eb7b376	0.35879105
25	0x3e741942	0.2383776
26	0xbd426b7b	-0.047465783
27	0x3ec3e132	0.38257748
28	0xbe2c8c53	-0.16850404
29	0xbe36938b	-0.1782972
30	0x3dddda01	0.108325966
31	0x3da2aee6	0.079435155
32	0xbe3c852a	-0.18410173
33	0x3da57ff9	0.080810495
34	0x3e596418	0.21229589
35	0xbb22f0c9	-0.0024862757
36	0xbe385655	-0.18001683
37	0x3e900eb2	0.28136212
38	0xbcae7ff0	-0.02130124
39	0x3e4e96ca	0.20174709
40	0x3eaa2978	0.33234763
41	0xbe03ce85	-0.1287175
42	0x3d9d3e2f	0.07677876
43	0x3e54054a	0.20705143
44	0xbe755af5	-0.23960479
45	0xbd5d0a09	-0.05396465
46	0xbcb973e0	-0.022638261
47	0x3e3822b1	0.17981984
48	0xbe3ea7c6	-0.18618688
49	0xbe7276ee	-0.2367818
50	0x3e8e8062	0.27832323
51	0xbdcc0d6c	-0.099634975
52	0xbeaef2a1	-0.34169486
53	0xbe404408	-0.18775952
54	0x3bfb3ac2	0.0076669166
55	0x3d422427	0.04739776
56	0xbe0699a3	-0.13144545
57	0x3d21d78d	0.039512206
58	0xbe70cd10	-0.23515725
59	0xbdcb2344	-0.09918836
60	0x3e35523f	0.17707156
61	0x3e344540	0.17604542
62	0x3e27e9dd	0.16397806
63	0x3e986105	0.2976152
64	0x3e69f09f	0.22845696
65	0x3df0967e	0.11747454
66	0xbe8c225c	-0.27369964
67	0xbe98b1c2	-0.29823118
68	0x3e6137cb	0.2199394
69	0x3e82c07d	0.25537482
70	0xbe6ffc66	-0.23436126
71	0x3dfbc747	0.122938685

conv1.bias f4 [8]
0	0xbe0a666e	-0.13515636
1	0x3c9e8609	0.019351022
2	0xbca88ecb	-0.020575901
3	0x3b9b6177	0.0047418433
4	0xbe26af9d	-0.16277929
5	0xbe8efd73	-0.2792774
6	0x3e863732	0.26213986
7	0x3e925883	0.28583154

conv2.weight f4 [16, 8, 3, 3]
0	0x3df49f77	0.11944478
1	0x3d436b52	0.04770977
2	0xbb8dc67a	-0.0043266388
3	0x3dd0d01a	0.10195942
4	0x3d253c97	0.040340986
5	0xbc2cd77b	-0.010549421
6	0xbd9ce54d	-0.07660923
7	0x3b76eb2f	0.0037676801
8	0x3c220d1a	0.009890819
9	0x3d94b33b	0.07260748
10	0x3dc40224	0.09570721
11	0x3cfe678e	0.031055238
12	0xbcdc1c60	-0.026868999
13	0xbd9afe10	-0.0756799
14	0xbd981182	-0.07425214
15	0xbd84f429	-0.06491882
16	0xbd28cfe8	-0.0412139
17	0xbd9f192b	-0.07768472
18	0xbd3b9678	-0.045797795
19	0xbd267eea	-0.04064838
20	0x3d84d21e	0.06485389
21	0xbd16a486	-0.036777996
22	0x3dbfe87b	0.09370514
23	0xbc11bba6	-0.0088948365
24	0x3ca239ba	0.019802917
25	0xbd919224	-0.07107952
26	0xbdd55731	-0.10417021
27	0xbd835554	-0.064127594
28	0x3d5f009a	0.054443933
29	0xbdafacfc	-0.08577916
30	0x3d63ac97	0.055584516
31	0x3c234c16	0.009966871
32	0xbb93bcd4	-0.004508594
33	0x3e2f7ebf	0.17138194
34	0x3dcd1338	0.10013431
35	0xbddc975e	-0.107710585
36	0x3c035739	0.008016401
37	0x3d7c6f13	0.061629366
38	0xbd64e930	-0.055886447
39	0x3df63d55	0.12023417
40	0xbc9a686a	-0.018848617
41	0xbda67cc8	-0.08129269
42	0xbce7d9b6	-0.028302055
43	0x3bf96d7d	0.007611929
44	0x3cd3fa6a	0.025876243
45	0x3ca158a6	0.019695591
46	0x3c327fc1	0.010894717
47	0x3dc00a14	0.09376922
48	0xbdc4bbb8	-0.09606117
49	0x3cb8ea65	0.022572706
50	0x3d86b26a	0.065769985
51	0x3d89ab0e	0.06722079
52	0x3ce240e9	0.027618842
53	0xbc38db66	-0.011282777
54	0xbd7d5ef4	-0.061858132
55	0x3d111766	0.035422705
56	0xbdf33fa4	-0.11877373
57	0x3c804531	0.015657993
58	0x3d924fbb	0.07144114
59	0xbe0e3ee0	-0.13891172
60	0xbd71c4a6	-0.05902543
61	0xbd47f684	-0.04881908
62	0xbd81858c	-0.063243
63	0xbd2328dd	-0.039833892
64	0xbde393ba	-0.11112161
65	0xbd5fdf0d	-0.054656077
66	0x3d58009a	0.05273495
67	0x3d282ce6	0.041058443
68	0xbcafc00e	-0.021453883
69	0xbccc99d0	-0.024975687
70	0x3d8e5a4a	0.06950815
71	0x3ca0284b	0.019550463
72	0xbd01ddc4	-0.031705633
73	0x3d9a01b2	0.075198546
74	0xbd35296d	-0.04422896
75	0xbca7fd76	-0.020506602
76	0x3d77f020	0.060531735
77	0x3b703a51	0.0036655853
78	0xbd948fad	-0.072539665
79	0x3dd6eda5	0.10494546
80	0xbdd103ff	-0.1020584
81	0xbb956599	-0.0045592305
82	0xbbc04fe9	-0.005868901
83	0xbdff64f9	-0.12470431
84	0x3cd5d39f	0.026101885
85	0xbda04f5c	-0.078276366
86	0x3bcb87cb	0.006211256
87	0xbd6cc922	-0.057809003
88	0xbd28b147	-0.04118469
89	0xbdb17e55	-0.08666674
90	0xbd19e451	-0.037571255
91	0x3dd06e69	0.10177309
92	0xbddf8de9	-0.10915739
93	0xbd4e00fd	-0.05029391
94	0xbcc9fd74	-0.024656989
95	0x3d877905	0.066148795
96	0x3d1933db	0.03740297
97	0x3d783b23	0.060603272
98	0x3c5a612f	0.013328834
99	0xbd968237	-0.07349055
100	0x3b21af18	0.0024671014
101	0x3cacb140	0.021080613
102	0x3d14997b	0.036279183
103	0xbdd57160	-0.10422015
104	0x3e03e4a0	0.12880182
105	0x3ca165f7	0.019701941
106	0x3ca219f1	0.01978776
107	0x3cb38878	0.02191566
108	0xbc8c7194	-0.017144002
109	0xbd943026	-0.07235746
110	0xbc56dbee	-0.013113959
111	0x3d708b73	0.05872674
112	0x3d838409	0.06421668
113	0x3b38d439	0.0028202666
114	0x3da46970	0.08027923
115	0xbd2acfe7	-0.041702177
116	0x3bb570a3	0.005537109
117	0xbd8ed578	-0.0697431
118	0x3d9cb816	0.07652299
119	0xbde8c463	-0.11365583
120	0x3dbdb818	0.09263629
121	0xbdbab151	-0.09115852
122	0xbd68884c	-0.056770608
123	0x3d0b2560	0.03397119
124	0x3dc8c0ad	0.09802375
125	0xbe04231b	-0.12904017
126	0xbdab54d7	-0.08365791
127	0x3b6515c6	0.0034955605
128	0x3dafaddf	0.08578085
129	0xbc25c148	-0.010116883
130	0xbd94abc2	-0.07259323
131	0xbd561913	-0.052270006
132	0x3daaf107	0.083467536
133	0x3d86b275	0.06577007
134	0x3c7b33e3	0.015332195
135	0x3d876d48	0.066126406
136	0x3d974666	0.07386474
137	0x3dfb785b	0.12278815
138	0x3d0d6578	0.034520596
139	0x3d145140	0.0362103
140	0x3dee7b54	0.11644617
141	0xbde7dd3b	-0.11321493
142	0xbde1b1c8	-0.11020237
143	0xbd2b149a	-0.041767694
144	0x3d11f681	0.035635475
145	0xbdb4cde8	-0.08828336
146	0x3d018fd0	0.03163129
147	0x3d9f7f17	0.07787912
148	0xbdf44bc2	-0.11928512
149	0xbbed6fb5	-0.0072459825
150	0xbdb64022	-0.08898951
151	0xbbc64914	-0.006051192
152	0x3d8744d9	0.066049285
153	0x3d506304	0.05087568
154	0x3e034ef6	0.1282309
155	0xbdacb979	-0.084338136
156	0x3e0667d9	0.13125552
157	0xbcfd30cb	-0.030907055
158	0x3d6cc55b	0.0578054
159	0x3d17caa8	0.037058502
160	0xbbb8f109	-0.005643968
161	0xbbcd2bee	-0.0062613403
162	0x3c9747f5	0.018466929
163	0xbdf4e23b	-0.119572125
164	0xbdb5aca6	-0.08870821
165	0xbde3eb8a	-0.1112891
166	0xbda699c3	-0.081347965
167	0x3dd247a9	0.10267574
168	0x3d1ce44e	0.038303666
169	0x3c9fc598	0.0195034
170	0x3d29f263	0.041490924
171	0xbdfb7ede	-0.12280057
172	0x3d94d6a3	0.07267501
173	0xbb43a8f3	-0.002985534
174	0x3dc571ee	0.09640871
175	0xbbac83a9	-0.0052647186
176	0x3c5cc57e	0.01347482
177	0xbde394ce	-0.111123666
178	0xbdacb4ec	-0.084329456
179	0xbde11adb	-0.109914504
180	0x3a899279	0.0010495923
181	0x3dba33c6	0.09091906
182	0x3d09338d	0.03349643
183	0x3d670c18	0.056408018
184	0xbdfef4a7	-0.124490075
185	0xbe0aabdf	-0.13542126
186	0xbdeea51c	-0.11652586
187	0x3dc703c0	0.09717512
188	0xbca208d7	-0.019779606
189	0xbd8a424b	-0.06750926
190	0x3d1d14fe	0.038350098
191	0x3c1b4c3e	0.009478627
192	0x3aebb74e	0.0017983706
193	0x3dd67093	0.104706906
194	0xbca0db01	-0.01963568
195	0x3dd73f8f	0.1051017
196	0xbc452d93	-0.0120347915
197	0x3d5c91d2	0.053850003
198	0xbe14ecf1	-0.14543511
199	0x3d4294b6	0.047505103
200	0x3c598dfc	0.013278481
201	0xbc8760f4	-0.016525723
202	0x3d98dfd9	0.074645706
203	0xbd6fc086	-0.058533214
204	0x3d803480	0.062600136
205	0x3d3e5d02	0.046475418
206	0x3dcabe84	0.09899619
207	0xbdabf646	-0.08396582
208	0xbddc2634	-0.10749474
209	0xbd3fcd42	-0.04682661
210	0xbab33671	-0.0013672841
211	0x3cdf36b8	0.027247772
212	0xbd5e6323	-0.054293763
213	0x3d8df02f	0.06930577
214	0xbe11ed30	-0.14250636
215	0xbca5ed24	-0.020254679
216	0x3d0106d4	0.031500652
217	0x3d093e82	0.033506878
218	0xbd0ae2f7	-0.033907857
219	0xbd374b57	-0.044749584
220	0x3dfa41a2	0.1221955
221	0x3c945b9c	0.018110089
222	0xbd9c6ce6	-0.07637958
223	0xbd0c4c7a	-0.03425262
224	0x3d08c0ac	0.03338687
225	0x3c923d98	0.017851636
226	0xbc53ef97	-0.012935541
227	0xbcc6b125	-0.024254391
228	0xbdfb4f13	-0.122709416
229	0x3dac1703	0.08402827
230	0x3d72121f	0.059099313
231	0x3db64868	0.08900529
232	0xbcf02d09	-0.02931835
233	0xbd8a6cc6	-0.06759028
234	0x3d2938db	0.041313987
235	0x3bc61c31	0.006045841
236	0xbc90f0d6	-0.017692965
237	0x3dc1778c	0.0944663
238	0x3d1097b0	0.03530091
239	0x3d139a21	0.03603566
240	0x3ddeeab4	0.1088461
241	0x3d34b45f	0.044117328
242	0x3cb1abfa	0.02168845
243	0x3de5acd5	0.11214606
244	0x3c860082	0.016357664
245	0xbe43ad95	-0.19109185
246	0x3e10472c	0.1408965
247	0x3e357415	0.17720063
248	0xbe2ead14	-0.17058212
249	0x3e0f8127	0.14014111
250	0x3db377a6	0.087630555
251	0xbce04fa6	-0.02738173
252	0x3e469c58	0.19395578
253	0xbdcea294	-0.10089603
254	0xbe18cb54	-0.14921314
255	0xbd939ede	-0.07208036

conv2.bias f4 [16]
0	0x3cdcf8fd	0.026974196
1	0xbd8d54da	-0.0690095
2	0xbc7c37b1	-0.015394137
3	0x3de172e9	0.110082455
4	0x3d9c6634	0.07636681
5	0x3d93ccf1	0.07216824
6	0x3d406c0b	0.046978038
7	0x3dd5ba3e	0.104359135
8	0xbda9c626	-0.08289747
9	0x3dd58f70	0.10427749
10	0xbdf99d00	-0.121881485
11	0xbc9a010d	-0.01879933
12	0x3e062c38	0.13102806
13	0xbdc9f291	-0.09860719
14	0x3da9b21f	0.08285927
15	0x3e43fd08	0.19139493

conv3.weight f4 [32, 16, 3, 3]
0	0xbda3a691	-0.079907544
1	0xbdac364a	-0.08408792
2	0xbd0c83cf	-0.03430539
3	0x3dc22f2f	0.09481656
4	0x3aa2b0c5	0.00124123
5	0xbca50e15	-0.020148316
6	0x3cac324c	0.021020077
7	0xbd966e2f	-0.073452346
8	0xbcdf3299	-0.027245807
9	0xbd41aa13	-0.047281336
10	0x3e139a84	0.14414412
11	0x3d42644d	0.047458936
12	0xbd6fcc67	-0.058544543
13	0xbd4248b1	-0.047432605
14	0x3d8ce406	0.068794295
15	0x3ce4bb28	0.027921274
16	0x3b2dace8	0.0026500765
17	0x3bd02aa8	0.0063527413
18	0x3d4b0d18	0.049573034
19	0x3d70db3d	0.058802832
20	0x3d43d489	0.04781011
21	0xbd3289f1	-0.043588582
22	0x3c3018f5	0.010748138
23	0x3bb9eae5	0.0056737536
24	0x3d39fd58	0.045407623
25	0xbd1f49b0	-0.038888633
26	0x3c573abc	0.013136562
27	0x3cb19e7e	0.02168202
28	0xbc08eb71	-0.008356915
29	0xb9b7534e	-0.00034966547
30	0x3d0694c4	0.032856718
31	0xbd589c10	-0.052883208
32	0xbdbc8f14	-0.092069775
33	0xbde227fa	-0.11042781
34	0x3cdba165	0.026810357
35	0xbdd2e468	-0.10297471
36	0xbd8310de	-0.063997015
37	0x3d636ada	0.055521823
38	0xbd232d7a	-0.03983829
39	0xbd2821dd	-0.04104792
40	0xbd9357bc	-0.071944684
41	0xbcd1c2d6	-0.0256056
42	0xbd58b845	-0.052910108
43	0xbc4fe893	-0.012689727
44	0xbdbd1da2	-0.09234168
45	0xbde5bcce	-0.11217652
46	0x3c65dbc0	0.014029443
47	0xbd79750f	-0.06090265
48	0xbe6cf96c	-0.23142022
49	0xbe63723b	-0.22211544
50	0xbe5e9d4b	-0.2173969
51	0xbd732938	-0.05936548
52	0xbd285ae1	-0.041102294
53	0xbe20b80f	-0.15695213
54	0x3d346fc2	0.044051893
55	0x3d81d7e7	0.06340008
56	0xbd395798	-0.04524955
57	0xbcd4e991	-0.02599028
58	0x3d9986f5	0.07496444
59	0xbc00ff2c	-0.007873338
60	0xbd4a7f38	-0.04943773
61	0xbd3844e9	-0.044987593
62	0xbdd0e7bc	-0.1020045
63	0x3dd46a51	0.10371841
64	0x3cb58adc	0.02216094
65	0x3d057b31	0.032588188
66	0x3dd8d322	0.105871454
67	0x3b0e6c43	0.002173201
68	0x3d2be618	0.04196748
69	0x3de3a2c0	0.111150265
70	0x3daa2f4a	0.08309801
71	0xbcf28064	-0.029602237
72	0xbd0cc488	-0.034367114
73	0x3e236903	0.15958028
74	0x3e23fc3e	0.16014192
75	0xbdb615bc	-0.08890864
76	0x3cbb0169	0.02282782
77	0x3d39de5d	0.045378078
78	0xbb269623	-0.0025419078
79	0xbd105fc1	-0.035247568
80	0x3dae1fa6	0.0850213
81	0xbd5d3a07	-0.054010417
82	0xbc8ec957	-0.01742999
83	0x3cebccce	0.028784182
84	0x3d23d540	0.039998293
85	0xbd70bb5d	-0.058772434
86	0xbb884d86	-0.004159632
87	0x3d34c325	0.044131417
88	0xbd146428	-0.03622833
89	0xbd550ef9	-0.052016232
90	0x3d08a085	0.03335621
91	0xbb805c18	-0.0039172284
92	0x3cf2cf3b	0.02963983
93	0x3d53a98f	0.051675376
94	0x3ccd22ca	0.025041003
95	0x3dbb18aa	0.09135564
96	0xbc3619bd	-0.011114535
97	0x3c5295a8	0.012853064
98	0x3df47330	0.11936033
99	0xbd6dfa7c	-0.05810021
100	0xbde1b304	-0.11020473
101	0xbd7262c8	-0.059176236
102	0xbc575379	-0.01314246
103	0xbd17325a	-0.036913253
104	0x3d2592fb	0.040423375
105	0x3a240c4b	0.00062579353
106	0xbd260b13	-0.040537905
107	0x3aed72ed	0.0018115916
108	0xbcf5eef2	-0.030021165
109	0x3d657a93	0.0560251
110	0xbd7dd2bd	-0.061968554
111	0x3d91bde2	0.071162954
112	0xbda559e8	-0.08073789
113	0x3d410499	0.047123525
114	0x3d65e825	0.056129593
115	0xbc2f7a1b	-0.010710265
116	0x3db78ee5	0.08962802
117	0x3d7e44b5	0.062077243
118	0xbd257e1a	-0.040403463
119	0xbdfee4f5	-0.12446014
120	0x3e076e66	0.13225707
121	0xbd5fffaf	-0.0546872
122	0xbdc63ccd	-0.096795656
123	0x3c519587	0.012791998
124	0x3d8fc16e	0.07019316
125	0xbdd2e766	-0.10298042
126	0xbca01ed1	-0.019545944
127	0x3d65f77b	0.05614422
128	0xbd95e52e	-0.07319103
129	0x3d36e35c	0.04465042
130	0xbd6a83d9	-0.057254646
131	0x3d0c6a7e	0.034281246
132	0x3d5ac5ae	0.05341118
133	0xbdb4bdc2	-0.08825256
134	0xbddca67a	-0.107739404
135	0xbd453cbe	-0.04815363
136	0xbd0e818e	-0.03479152
137	0x3dfcafc1	0.1233821
138	0x3dfca62c	0.12336382
139	0x3d93b5ce	0.07212411
140	0x3c91a55c	0.017779045
141	0x3d5dd13d	0.054154623
142	0x3cef3214	0.029198684
143	0xbc242cab	-0.010020415
144	0xbd44b886	-0.048027538
145	0xbd3eef7f	-0.04661512
146	0xbd872b64	-0.06600073
147	0xbc98fb1b	-0.018674424
148	0xbdafd901	-0.08586312
149	0x3c1cec5c	0.009577837
150	0x3d12c46d	0.035831857
151	0x3cc5a58a	0.024126787
152	0x3d65ca5e	0.056101196
153	0x3d070e28	0.032972485
154	0x3d64f7b7	0.0559003
155	0x3bde5ada	0.0067857327
156	0xbbb846b7	-0.0056236642
157	0x3d917e71	0.07104195
158	0x3d5aaa19	0.053384874
159	0x3ce66678	0.028125033
160	0xbccae6f8	-0.024768338
161	0xbd757b13	-0.059931826
162	0xbd3d62eb	-0.046236914
163	0x3cb498d5	0.022045532
164	0xbcd35417	-0.025796933
165	0xbcad3786	-0.02114464
166	0x3c54e715	0.012994547
167	0xbca05c4d	-0.019575262
168	0xbd11dec6	-0.035612844
169	0xbd87b681	-0.06626607
170	0x3d7d7bb9	0.06188557
171	0x3c86652c	0.016405664
172	0x3d43197c	0.047631726
173	0xbda36f7f	-0.079802506
174	0x3d870c60	0.06594157
175	0xbd807248	-0.062717974
176	0xbd43789f	-0.047722455
177	0xbcb7d39d	-0.022439772
178	0xbd5d134e	-0.05397349
179	0x3d67c189	0.056581054
180	0xbd9d34c9	-0.076760836
181	0x3d97d7cc	0.07414207
182	0xbc7ea7cf	-0.015542938
183	0x3d0e6d2e	0.03477209
184	0xbc17fd6e	-0.009276731
185	0xbd9bd210	-0.076084256
186	0x3d477323	0.048693787
187	0xbd6ea87b	-0.058266144
188	0xbccfa953	-0.025349295
189	0xbd6d22a7	-0.057894375
190	0x3c306d56	0.010768255
191	0x3da657fb	0.0812225
192	0xbda5b267	-0.08090668
193	0x3c9d6ca1	0.019216837
194	0x3beddd6c	0.0072590616
195	0x3d45e0c9	0.048310075
196	0xbd876322	-0.06610705
197	0xbd3e0077	-0.046387162
198	0x3d10c51f	0.03534424
199	0xbd2b8750	-0.04187709
200	0xbd086261	-0.033296946
201	0xbd507a44	-0.05089785
202	0xbd794822	-0.060859807
203	0x3d42ebf6	0.04758831
204	0xb981b959	-0.00024742892
205	0xbd58f336	-0.05296632
206	0xbd90dc7f	-0.07073306
207	0xbd5b3151	-0.05351383
208	0x3d0223c4	0.03177239
209	0xbd1017ad	-0.03517883
210	0x3d657519	0.056019876
211	0x3d747fed	0.059692312
212	0x3d8b14d5	0.06791083
213	0xbc3285b0	-0.010896131
214	0xbb0ab585	-0.0021165323
215	0xbb2862c3	-0.0025693632
216	0x3cccb48a	0.024988431
217	0xbc8a0f9c	-0.016853146
218	0x3d43066b	0.047613543
219	0x3d8dd754	0.06925836
220	0x3ce8de8d	0.028426433
221	0xbd81a7cf	-0.06330835
222	0x3da4feec	0.08056435
223	0xbcf7627a	-0.030198324
224	0x3d92c55a	0.07166548
225	0x3d4eb825	0.050468583
226	0x3d988da2	0.07448889
227	0xbdae5c69	-0.085137196
228	0xbd8e0f63	-0.069365285
229	0xbd3879dd	-0.045038093
230	0x3c7067f1	0.014673219
231	0xbd66333e	-0.056201212
232	0xbd965af2	-0.07341565
233	0x3d77fed1	0.060545746
234	0xbd1e5c99	-0.038662527
235	0xbcd7b415	-0.026330987
236	0x3d2c8405	0.04211809
237	0xbdbbdab7	-0.09172576
238	0x3d8076f5	0.06272689
239	0x3c843bcd	0.016141796
240	0xbddc5c60	-0.10759807
241	0xbd857b5b	-0.06517669
242	0x3d3bcc2d	0.045849014
243	0x3d034540	0.032048464
244	0xba8fd60c	-0.0010973825
245	0x3b21f521	0.0024712759
246	0xbdbb3976	-0.09141819
247	0x3d23ae66	0.03996124
248	0xbda7ca37	-0.08192866
249	0x3c29a7b4	0.010354925
250	0x3d6638a7	0.05620637
251	0x3c3020e4	0.010750029
252	0x3d307cb3	0.043087672
253	0x3cb662dc	0.022263937
254	0xbd97a646	-0.07404761
255	0x3b9d345a	0.0047975006

conv3.bias f4 [32]
0	0x3c8c306a	0.01711293
1	0x3d26cc53	0.040722203
2	0x3caab849	0.020839827
3	0x3cf513aa	0.029916603
4	0xbd2fcd75	-0.04292055
5	0xbb26e32a	-0.002546499
6	0xbd231448	-0.039814264
7	0xbce4c60c	-0.027926467
8	0x3c49a7bc	0.012308057
9	0x3c792493	0.015206474
10	0xbd28a05d	-0.04116856
11	0xbbae8eea	-0.0053270953
12	0x3df2a72d	0.118482925
13	0x3d578aad	0.052622486
14	0x3d8a93cf	0.067664735
15	0xbc8981f6	-0.016785603
16	0x3d902b81	0.07039548
17	0x3de5f2d6	0.11227958
18	0x3d2cd255	0.042192776
19	0xbd26a854	-0.040687874
20	0xbc95ec56	-0.01830117
21	0x3c3ee709	0.011651763
22	0x3d70e9e9	0.058816824
23	0x3c7d7144	0.015468899
24	0xbc6e2585	-0.014535313
25	0xbcfdcf42	-0.030982617
26	0x3dbe4d92	0.09292139
27	0xbcf9231c	-0.03041225
28	0x3d07a6b0	0.03311795
29	0x3c240c52	0.010012703
30	0x3cd12f08	0.025535122
31	0xbd79cbec	-0.06098549

conv4.weight f4 [1, 32, 3, 3]
0	0xbca8d401	-0.020608904
1	0x3d9da4ef	0.07697474
2	0x3d8c5d52	0.06853737
3	0x3b0130da	0.0019712956
4	0x3db0c636	0.08631556
5	0x3d8ca2e6	0.06867008
6	0xbcd8c6ea	-0.026462037
7	0x3b37cf88	0.0028047282
8	0x3d6da0ad	0.05801456
9	0x3c8bda76	0.017071944
10	0xbd892f6f	-0.066985
11	0x3cfb82ec	0.030702077
12	0xbd320c68	-0.043468863
13	0x3c497baa	0.01229755
14	0x3cb4e944	0.022083886
15	0xbcadb015	-0.021202127
16	0xbd3d9020	-0.046280026
17	0xbcf4980a	-0.029857654
18	0xbd148af1	-0.036265317
19	0x39e87593	0.00044338088
20	0xbcc5df9f	-0.024154482
21	0xbd57088c	-0.052498385
22	0x3c4553b7	0.012043885
23	0xbd5e1d44	-0.05422713
24	0x3bbcd5cf	0.0057627927
25	0x3d388b67	0.04505482
26	0x3c96e77d	0.01842093
27	0xb9e08285	-0.00042821854
28	0xbd531934	-0.051537707
29	0x39efb5a6	0.0004572097
30	0xbbf69927	-0.0075255814
31	0xbcf1746b	-0.029474458
32	0xbd94ad90	-0.07259667
33	0x3c23507d	0.00996792
34	0xbd98e610	-0.07465756
35	0xbd109baf	-0.03530472
36	0xbd5b931f	-0.053607102
37	0xbca9c76a	-0.02072497
38	0xbd694c41	-0.056957487
39	0xbd344b89	-0.04401735
40	0x3d1008fb	0.035164814
41	0x3d074958	0.03302893
42	0x3d105611	0.03523833
43	0xbd93b31b	-0.07211896
44	0xbd295d05	-0.041348476
45	0x3d4a9b6d	0.04946463
46	0xbcafa233	-0.021439647
47	0x3cedf43a	0.02904712
48	0x3d1b7e79	0.03796241
49	0x3cad4fef	0.02115628
50	0xbc36f39f	-0.011166482
51	0x3d86a0b4	0.065736204
52	0x3d6d1dde	0.05788981
53	0x3d8c178d	0.068404295
54	0xbd62e9a9	-0.055398617
55	0xbc8377b6	-0.016048294
56	0xbc426710	-0.011865392
57	0xbcbff05b	-0.02343004
58	0x3d45a67d	0.04825448
59	0xbd23a40e	-0.039951377
60	0x3cf517b9	0.029918538
61	0x3cdf8f7f	0.027290104
62	0xbd8ac37b	-0.06775566
63	0x3b959e29	0.0045659733
64	0xbbc32df6	-0.0059564067
65	0x3d5bd245	0.053667326
66	0x3e16c0bf	0.14721964
67	0x3da3383e	0.07969712
68	0x3d02d782	0.031943806
69	0x3e3d1e86	0.18468675
70	0x3d899a33	0.06718864
71	0x3df2f2ce	0.118627176
72	0xbd15e34e	-0.036593728
73	0xbd9e7e85	-0.077389754
74	0x3d380203	0.044923794
75	0xbd54e54c	-0.051976487
76	0xbd452ff4	-0.048141435
77	0xbd2eca06	-0.042673133
78	0xbdc10dfb	-0.09426495
79	0x3d433f41	0.047667746
80	0x3daf8af9	0.08571429
81	0xbd060a85	-0.032724876
82	0x3d263866	0.04058113
83	0x3d7d4a1a	0.061838247
84	0x3cc85c6e	0.024458136
85	0x3b8d20d7	0.0043068933
86	0x3d2c7d50	0.042111695
87	0x3d1e1e6f	0.038603242
88	0x3c46e9be	0.012140689
89	0x3cdb22d4	0.026750006
90	0xbd29ad46	-0.041425012
91	0xbc0e7619	-0.008695149
92	0xbd23ffd1	-0.040038887
93	0xbb92f6a1	-0.004484967
94	0xbce8f288	-0.02843596
95	0x3d8637f3	0.0655364
96	0x3d804323	0.06262805
97	0x3c09806d	0.0083924355
98	0xbcfa0c8a	-0.030523557
99	0xbc1b3597	-0.009473226
100	0x3d5193d0	0.051166356
101	0xbcbe6db1	-0.023245664
102	0x3d713da9	0.058896694
103	0x3dadc7fe	0.08485411
104	0xbd01d636	-0.031698428
105	0xbcbef3c2	-0.023309592
106	0x3ce07ee5	0.027404258
107	0x3d32ef38	0.043685168
108	0x3aa9901b	0.0012936624
109	0x3c46a6df	0.012124746
110	0x3d81e3b0	0.06342256
111	0xbca955c7	-0.020670785
112	0xbcc99f74	-0.024612166
113	0x3d40152a	0.046895184
114	0xbd499d90	-0.04922253
115	0xbd3e747f	-0.046497818
116	0xbc841a6b	-0.016125878
117	0xbd5c6653	-0.05380852
118	0xbcbe7326	-0.023248266
119	0xbd4dc32b	-0.050234955
120	0xbd034234	-0.032045558
121	0xbd629b2a	-0.055323757
122	0xbcdd6b1a	-0.027028609
123	0x3c9d7f3b	0.019225707
124	0xbd81f3d9	-0.063453384
125	0x3c0f1c87	0.008734829
126	0x3d6f82b0	0.058474243
127	0xbcb0bdaa	-0.021574814
128	0x3d80ee59	0.06295461
129	0x3d22b9a9	0.03972784
130	0xbccd5848	-0.02506651
131	0xbcde89c4	-0.027165301
132	0x3d87ee8f	0.06637298
133	0x3dae3b8e	0.08507453
134	0xbcf6a8c4	-0.03010977
135	0x3d5a778e	0.053336672
136	0x3d3155f1	0.04329485
137	0xbc8a2b97	-0.016866488
138	0x3d48a0df	0.048981544
139	0x3d11429b	0.03546391
140	0x3cf7e11d	0.03025871
141	0x3cbd9fe4	0.02314753
142	0x3d4831b1	0.048875514
143	0xbb443014	-0.0029935883
144	0xbc52f114	-0.01287486
145	0xbd2b5a79	-0.04183433
146	0xbcdb72a2	-0.02678806
147	0xbd879235	-0.06619684
148	0x3cf0962d	0.029368484
149	0xbc499104	-0.012302641
150	0x3c895406	0.016763698
151	0x3d0753f7	0.03303906
152	0xbd79ecb1	-0.061016742
153	0xbd06c4ac	-0.032902405
154	0xbc764d0e	-0.01503302
155	0x3a2f8575	0.0006695607
156	0x3d51da86	0.05123379
157	0xbd17e764	-0.037085906
158	0x3d4617fd	0.04836272
159	0xbd189dd9	-0.03725991
160	0xbc89f0d4	-0.016838469
161	0x3d850b5c	0.06496307
162	0x3d364b66	0.0445055
163	0xbda54eec	-0.08071694
164	0x3cbcfdb9	0.023070203
165	0xbcd5b556	-0.026087444
166	0xbd905c3c	-0.07048842
167	0x3c184008	0.00929261
168	0xb943e932	-0.00018683521
169	0xbdaa69e8	-0.08320981
170	0xbcfa280c	-0.030536674
171	0xbd33c433	-0.043888282
172	0xbd54f9d1	-0.051996056
173	0x3c903b66	0.017606448
174	0xbd5733b3	-0.05253954
175	0xbd0e6d6e	-0.03477233
176	0xbc0d1c40	-0.008612692
177	0xbc4c7f47	-0.012481517
178	0x3d28248a	0.04105047
179	0xbce4d4bf	-0.027933476
180	0x3d8a97b1	0.06767214
181	0xba07c425	-0.0005179069
182	0x3d271a16	0.040796362
183	0xbcc3bc2c	-0.023893438
184	0x3d800bfd	0.062522866
185	0xbd246e52	-0.040144272
186	0x3cc9cc33	0.024633503
187	0x3d601972	0.054711767
188	0xbcc84abc	-0.024449699
189	0x3d47a08c	0.048737094
190	0x3d7b2d0b	0.061322253
191	0xbbdafa8d	-0.0066827
192	0x3d7f65ec	0.06235306
193	0xbcb6d82e	-0.02231988
194	0xbd1333a9	-0.03593794
195	0x3d71f47e	0.059071057
196	0x3d0ddf6d	0.034636904
197	0xbd2718fa	-0.040795304
198	0x3d652164	0.055940047
199	0x3d7b55e5	0.061361212
200	0x3d2fc15f	0.042909022
201	0x3b0224b7	0.001985831
202	0x3c92cd9f	0.017920313
203	0xbccc4ac9	-0.024938004
204	0x3d11918e	0.035539202
205	0xbd2686f5	-0.04065605
206	0x3d926b99	0.07149429
207	0xbc8bc58c	-0.017061971
208	0x3c95ba11	0.0182772
209	0x3b8704b2	0.004120433
210	0xbc419750	-0.011815861
211	0xbb908df8	-0.0044114552
212	0x3c66b934	0.014082242
213	0xbd7e8b91	-0.06214482
214	0xbdd08c90	-0.1018306
215	0xbd2e0943	-0.0424893
216	0xbb1bfcc3	-0.002380178
217	0x3c90e8d0	0.017689139
218	0xbcb6fade	-0.02233642
219	0x3ce81c46	0.028333794
220	0x3d36e212	0.04464919
221	0xbc92daf4	-0.01792667
222	0x3bebf76b	0.0072011254
223	0x3c2693dd	0.010167089
224	0xbd021a41	-0.03176332
225	0x3d0c1705	0.03420164
226	0xbb9af754	-0.004729191
227	0xbce447f6	-0.027866345
228	0x3d87f130	0.066378
229	0xbcb36806	-0.021900188
230	0xbd5336ab	-0.051565807
231	0x3c9a1ace	0.01881161
232	0x3d773269	0.06035081
233	0x3d1bfad9	0.038081024
234	0xbb98abd1	-0.004659154
235	0xbd4b1056	-0.049576126
236	0xbd72b42c	-0.059253857
237	0x3cf5a034	0.029983617
238	0x3c626e4c	0.013820242
239	0x3d07dd9d	0.03317033
240	0x3d28b83c	0.041191325
241	0x3d0517a6	0.032493256
242	0x3bef4014	0.00730134
243	0xbcf78fc4	-0.03021992
244	0xbc98efd5	-0.018669048
245	0xbd0db1fb	-0.034593564
246	0xbd687e53	-0.056761097
247	0x3c1e2856	0.0096531715
248	0x3cdf3183	0.027245289
249	0x3cee691f	0.02910286
250	0x3d66c85e	0.05634343
251	0xbd3c49ae	-0.045968704
252	0x3c61cb03	0.013781312
253	0xbcf2ec44	-0.029653676
254	0xbd8b8c10	-0.06813824
255	0x3d0b0a13	0.033945154

batch_1.weight f4 [8]
0	0x3f844543	1.0333637
1	0x3f823b37	1.0174321
2	0x3f84dfb8	1.0380774
3	0x3f8d1db3	1.1024688
4	0x3f889300	1.0669861
5	0x3f809fc6	1.0048759
6	0x3f84e033	1.038092
7	0x3f827405	1.0191656

batch_1.bias f4 [8]
0	0x3b8f38b3	0.0043707727
1	0x3ba10be0	0.0049147457
2	0x3cd7a8d9	0.02632563
3	0x3c01fb9c	0.0079335235
4	0x3d0db1b6	0.034593306
5	0xbbd3cfd5	-0.0064639845
6	0x3d39ead5	0.04538997
7	0x3c3a483c	0.011369761

batch_1.running_mean f4 [8]
0	0x3e700f0e	0.23443243
1	0xbd9b3eea	-0.07580359
2	0x3e49707a	0.19671813
3	0x3db5ec02	0.088829055
4	0xbd19f120	-0.03758347
5	0xbefefa00	-0.4980011
6	0x3e4e8e5b	0.20171492
7	0x3ea473b6	0.3211953

batch_1.running_var f4 [8]
0	0x3dfad0d1	0.1224686
1	0x3daae2dc	0.08344051
2	0x3dc985e7	0.09839993
3	0x3daa63c0	0.08319807
4	0x3db26b78	0.08711904
5	0x3dcd884e	0.10035764
6	0x3da65789	0.08122165
7	0x3da97b5f	0.08275484

batch_2.weight f4 [16]
0	0x3f816ba3	1.0110973
1	0x3f7fe9a5	0.9996589
2	0x3f820993	1.0159172
3	0x3f842e7e	1.0326688
4	0x3f813d2a	1.0096791
5	0x3f86b614	1.0524316
6	0x3f81c016	1.0136745
7	0x3f844402	1.0333254
8	0x3f83dd09	1.030183
9	0x3f8304c8	1.0235834
10	0x3f7d2b8f	0.9889459
11	0x3f828949	1.0198146
12	0x3f85e148	1.0459375
13	0x3f8fe30b	1.1241163
14	0x3f7eea4e	0.9957627
15	0x3f85fbb3	1.0467438

batch_2.bias f4 [16]
0	0x3c797a55	0.01522692
1	0x3c470f63	0.012149665
2	0x3c91b3d4	0.017785944
3	0xba0a2b29	-0.00052707136
4	0x3c7de4de	0.015496461
5	0x3cfcda88	0.030865923
6	0xbca7023b	-0.020386806
7	0x3c7ace6c	0.015308004
8	0x3ac991d0	0.0015378539
9	0x3cacfe0a	0.021117229
10	0x3b557846	0.003257291
11	0x3c72979b	0.014806653
12	0x3d3c7ca5	0.046017308
13	0xbcdfcacd	-0.027318383
14	0xbc30d79f	-0.010793596
15	0x3bcc82c2	0.0062411735

batch_2.running_mean f4 [16]
0	0xbe4ca16c	-0.19983453
1	0xbe606932	-0.21915129
2	0xbd6b3a7d	-0.057428826
3	0xbe7faf90	-0.24969316
4	0x3e9b09f8	0.30281043
5	0x3e207473	0.15669422
6	0x3e20fe88	0.15722096
7	0x3e163954	0.14670306
8	0xbe7bc271	-0.24585892
9	0x3e6e2b5c	0.23258728
10	0xbecbc707	-0.39800283
11	0xbe125bcf	-0.14292835
12	0x3d0d232c	0.03445737
13	0x3e56ede3	0.20989184
14	0xbe8b9d5c	-0.27268493
15	0x3e659170	0.22418761

batch_2.running_var f4 [16]
0	0x3e2e3486	0.17012224
1	0x3e808917	0.2510459
2	0x3e6ea330	0.23304439
3	0x3eb15b26	0.34639853
4	0x3e8b9dc0	0.2726879
5	0x3e1c246c	0.15248269
6	0x3e98dba9	0.29855087
7	0x3edbc1c4	0.4292127
8	0x3e07d28b	0.1326391
9	0x3e3c156b	0.18367545
10	0x3eac50e4	0.33655465
11	0x3e1da4a0	0.1539483
12	0x3dc862ff	0.09784507
13	0x3e31447c	0.17311281
14	0x3e2b0102	0.16699603
15	0x3e1b8f3b	0.15191357

batch_3.weight f4 [32]
0	0x3f86fe67	1.0546387
1	0x3f821d3f	1.0165175
2	0x3f7f7835	0.99792796
3	0x3f85131c	1.0396457
4	0x3f81c766	1.0138977
5	0x3f81f07c	1.0151515
6	0x3f81bc8f	1.0135669
7	0x3fb104bb	1.3829569
8	0x3f9ca53d	1.2237927
9	0x3f81d7c6	1.0143974
10	0x3f7f391d	0.9969652
11	0x3f8c1740	1.0944595
12	0x3f7dd845	0.99158126
13	0x3f80cdb0	1.0062771
14	0x3f9fece6	1.2494171
15	0x3f7f0ff8	0.9963374
16	0x3f8238a8	1.017354
17	0x3f7f0576	0.9961771
18	0x3f84e203	1.0381473
19	0x3f81401c	1.009769
20	0x3f82a2d4	1.0205941
21	0x3f831398	1.0240355
22	0x3f81a263	1.0127681
23	0x3f8b5b31	1.0887204
24	0x3f7f8f2f	0.99827856
25	0x3f835a0f	1.0261859
26	0x3f7f17e6	0.9964584
27	0x3f7fca0d	0.9991768
28	0x3f81a4d0	1.0128422
29	0x3f875cb7	1.0575169
30	0x3f808c86	1.0042884
31	0x3f85df08	1.0458689

batch_3.bias f4 [32]
0	0xbc91f511	-0.017817052
1	0x3c21efd0	0.009883836
2	0x3ae4de73	0.0017461315
3	0x3d2d4e3d	0.042310942
4	0x3b349e53	0.002756019
5	0x3ae87272	0.0017734303
6	0x3c544f43	0.012958351
7	0xbd7c095a	-0.061532356
8	0x3d916b08	0.07100493
9	0x3c7b7b27	0.015349186
10	0xbbef198f	-0.007296748
11	0x3b5163f5	0.0031950448
12	0xbb213021	-0.0024595337
13	0x3b9eef21	0.0048502837
14	0xbc2d3625	-0.010571991
15	0xbc3b5813	-0.011434573
16	0x3ca92425	0.020647118
17	0xbc17de90	-0.009269372
18	0x3d262dcf	0.04057103
19	0x3c92849a	0.017885495
20	0x3c86ec32	0.016470049
21	0x3c16ff6f	0.009216174
22	0x3bf0ffba	0.0073547037
23	0x3d0125af	0.03153008
24	0xbc011993	-0.0078796325
25	0x3bcaedcf	0.0061929
26	0xbba54567	-0.005043674
27	0xbc127b52	-0.008940535
28	0x3cb54680	0.022128344
29	0x3cf28e72	0.029608939
30	0xbad5a5a3	-0.0016299974
31	0x3ca2d872	0.0198786

batch_3.running_mean f4 [32]
0	0xbdc4c4e3	-0.09607866
1	0xbebc9f2f	-0.36840197
2	0x3ea20fd3	0.31652698
3	0x3be987b8	0.0071267746
4	0xbe15a78c	-0.14614695
5	0xbe2c90eb	-0.16852157
6	0x3bd00651	0.006348409
7	0x3e789864	0.24276882
8	0xbe86111b	-0.26184925
9	0x3e0fb1d0	0.14032674
10	0xbe02ab13	-0.12760572
11	0x3e30d35e	0.1726813
12	0x3e5f3a32	0.21799543
13	0x3f165268	0.5871949
14	0x3eb045eb	0.34428343
15	0x3e8451cc	0.25843656
16	0x3d0b50ba	0.034012534
17	0xbdf4b73f	-0.11949014
18	0xbe2157fc	-0.1575622
19	0x3e817891	0.25287297
20	0x3d98f9b9	0.07469506
21	0xbf05fc45	-0.5233806
22	0x3b2fd9d4	0.0026832717
23	0xbe663afc	-0.22483438
24	0x3e88ca1f	0.26716706
25	0xbe5cd832	-0.21566847
26	0xbdac2f35	-0.084074415
27	0xbdac4348	-0.084112704
28	0x3e7223a8	0.23646414
29	0x3cf18745	0.029483447
30	0xbe57ef81	-0.21087457
31	0xbdf10620	-0.117687464

batch_3.running_var f4 [32]
0	0x3e063002	0.13104251
1	0x3e8ff50c	0.28116643
2	0x3f160bdf	0.58611864
3	0x3ec91d43	0.39280137
4	0x3e6b2d29	0.22966446
5	0x3e2ffb81	0.17185785
6	0x3ecbee48	0.39830232
7	0x3e9e3aca	0.30904227
8	0x3e232836	0.15933308
9	0x3ec01c80	0.37521744
10	0x3e28bd06	0.16478357
11	0x3efdc5af	0.49564883
12	0x3e3f06a5	0.18654878
13	0x3e9da74a	0.30791694
14	0x3e2c66b0	0.16836047
15	0x3e95cfd1	0.29260114
16	0x3e9f17aa	0.31072742
17	0x3e07095d	0.13187166
18	0x3e8c4acb	0.27400813
19	0x3e92b233	0.2865158
20	0x3f1ac500	0.6045685
21	0x3e861dfa	0.26194745
22	0x3ef59fa6	0.47973365
23	0x3e51a646	0.20473585
24	0x3e7e694e	0.24844858
25	0x3ea1e9e8	0.3162377
26	0x3e8a6595	0.27030626
27	0x3e13210e	0.14368078
28	0x3e72ee17	0.23723637
29	0x3e917e52	0.28416687
30	0x3e68d643	0.22737984
31	0x3e9454df	0.28971002
